model_weights.pth (torch, 808652 bytes, 10 tensors)

lstm.weight_ih_l0 f4 [512, 4]
0.027536418 0.003473646 0.07278762 0.064990625 0.10543722 0.14039773 0.062105823 0.023136023
0.07789782 -0.006683086 0.13608603 0.12086996 0.15858206 0.16624549 -0.003187027 0.034488544
0.19203971 0.05146525 -0.019922508 -0.035621673 0.15599109 0.043092676 0.1281593 0.00086678786
0.072282284 0.06101577 0.10899116 0.11910731 0.06737042 0.048812483 0.069717966 0.08822267
0.11665116 0.025081348 -0.021166127 0.16383591 0.02526015 0.0065665017 0.07717644 -0.041868787
0.22845282 0.08927798 0.07290431 0.17404103 0.15214078 0.15018697 0.10585809 -0.00062600686
0.09819246 0.021237006 0.125569 0.11296698 0.12117924 0.12939732 0.06538869 0.10226925
0.036697417 0.1503031 0.07264355 0.16427243 0.050849527 0.14901067 -0.034326725 0.07681503
-0.0012024441 -0.0029076568 0.019092403 0.07525849 -0.011719956 0.016323976 0.092113174 0.068701915
0.14389215 0.12716374 0.13862088 0.1030951 0.061877534 -0.0046191015 0.11150019 0.011280569
0.16039425 0.10728882 -0.01024074 0.030226432 0.16595031 0.08805641 0.17268881 0.245569
0.13539326 0.015910294 0.011497021 0.038897272 0.055016357 0.12399832 0.066386804 0.1307742
0.056039575 0.1447385 0.15330945 -0.08599775 0.10390465 0.071380176 0.15047583 0.056735657
0.11397034 0.13643609 0.030167278 0.047886543 0.16666573 0.14818557 0.11919986 0.034321662
0.13490018 0.12669703 0.046838164 0.24169862 0.092231594 0.19785947 0.06639804 -0.2939863
0.20589626 0.13814111 0.02577853 0.09578051 0.17714146 0.0022530772 0.12933739 -0.05445618
-0.003488378 0.020678345 0.102895305 0.09519097 0.068108045 0.09120126 0.11106534 0.19457531
0.11053738 0.03874631 0.08424441 0.15245211 0.018332193 0.117147796 -0.034073636 0.16364466
-0.09014632 0.079736605 -0.008810102 -0.054380715 0.18326156 0.029731723 0.08798064 0.117626004
0.023342337 0.04932924 -0.007610922 0.035640188 0.16672385 0.19815402 -0.0016284732 0.18797301
0.07156352 0.09380146 0.019909868 0.17232369 0.09387273 0.15533589 0.07988827 0.11289668
0.12661994 0.1722802 -0.04595524 0.06915277 0.104811534 0.13566686 0.05916677 0.18174328
0.08390918 0.057680804 0.063656 0.11505472 0.07442804 0.12389455 0.1300116 -0.038861398
0.07007867 0.13960125 0.021958465 0.10906129 0.063341126 0.03994725 -0.009586794 0.042644892
0.17207304 0.21155645 0.051419396 -0.040137805 -0.012045944 0.0784856 0.11479023 0.1797429
0.19096233 0.15015997 0.035065923 0.097468495 0.012692495 0.19986896 0.05610379 -0.021989305
0.0901519 0.097402826 0.04363627 0.12126581 0.12485376 0.07087402 -0.022546181 0.15382265
0.07039651 0.15617293 0.07737567 -0.09965336 0.19517823 0.031290587 0.14900604 0.057242427
0.21200438 0.059018016 0.15644759 0.10287361 0.1361197 -0.006858237 0.023792751 0.1121018
0.010153144 0.022796752 0.15846013 0.18803318 0.08245687 0.111494236 0.022708727 0.09923208
0.08013555 0.11599827 -0.014156549 0.086664535 0.08487414 0.118193425 0.067896046 0.1292074
0.13100478 0.015267924 0.10280358 0.15471794 0.023323542 0.0539317 0.120460995 0.1702567
00000000: 0e94 e13c 1ca6 633b ad11 953d ce19 853d
00000010: 78ef d73d 6cc4 0f3e ad62 7e3d c287 bd3c
00000020: e488 9f3d cafd dabb 235a 0b3e ab8a f73d
00000030: 5663 223e 423c 2a3e 71dd 50bb dc43 0d3d
00000040: 0fa6 443e 3acd 523d 8734 a3bc 08e8 11bd
00000050: 21bc 1f3e f281 303d 313c 033e 2639 633a
00000060: bc08 943d aceb 793d c236 df3d 89ee f33d
00000070: 81f9 893d 99ef 473d 4bc8 8e3d 16ae b43d
00000080: cee6 ee3d 6677 cd3c 9664 adbc 9ac4 273e
00000090: 60ee ce3c cf2b d73b ae0e 9e3d 9b7e 2bbd
000000a0: 89ef 693e 60d7 b63d db4e 953d d037 323e
000000b0: cbca 1b3e 9dca 193e 20cc d83d 9c1a 24ba
000000c0: 2119 c93d 3bf9 ad3c 2995 003e 3b5b e73d
000000d0: d22c f83d bb80 043e 81ea 853d 8a72 d13d
000000e0: 0850 163d 0ee9 193e 24c6 943d 0837 283e
000000f0: 9847 503d 4196 183e 2e9a 0cbd 3351 9d3d
00000100: 549b 9dba 638e 3ebb ac67 9c3c 2021 9a3d
00000110: 0f05 40bc dcb9 853c d5a5 bc3d 97b3 8c3d
00000120: 7758 133e 3637 023e a2f2 0d3e 8623 d33d
00000130: 4c73 7d3d d55b 97bb 365a e43d 23d2 383c
00000140: 643e 243e 3eba db3d c7c8 27bc 6c9d f73c
00000150: e1ee 293e eb56 b43d 56d5 303e 7176 7b3e
00000160: 88a4 0a3e 4e56 823c 005e 3c3c bf52 1f3d
00000170: d558 613d d5f2 fd3d cef5 873d ace9 053e
00000180: c189 653d 5436 143e 27fd 1c3e 971f b0bd
00000190: f6cb d43d c52f 923d 5616 1a3e a663 683d
000001a0: 4869 e93d e7b5 0b3e 5e21 f73c ae24 443d
000001b0: 6caa 2a3e f5bd 173e 0e1f f43d df94 0c3d
000001c0: 4623 0a3e debc 013e 60d9 3f3d d87f 773e
000001d0: ebe3 bc3d ac9b 4a3e b2fb 873d 5f85 96be
000001e0: 78d6 523e dd74 0d3e 7f2d d33c 9228 c43d
000001f0: 9264 353e 5da8 133b 0571 043e 720d 5fbd
00000200: 459d 64bb a265 a93c c6ba d23d 7cf3 c23d
00000210: 3b7c 8b3d bac7 ba3d 3a76 e33d c03e 473e
00000220: 6c61 e23d 73b4 1e3d 5588 ac3d 681c 1c3e
00000230: 652d 963c 2feb ef3d cc90 0bbd 7792 273e
00000240: a29e b8bd f24c a33d 3f58 10bc 50be 5ebd
00000250: eba8 3b3e f18f f33c 322f b43d e7e5 f03d
00000260: 6e38 bf3c 750d 4a3d 0b65 f9bb 72fb 113d
00000270: a8b9 2a3e e3e8 4a3e 7e72 d5ba ff7b 403e
00000280: e58f 923d fb1a c03d 051a a33c 9f75 303e
00000290: 5940 c03d 5f10 1f3e 769c a33d 6036 e73d
000002a0: a8a8 013e 396a 303e 903b 3cbd f89f 8d3d
000002b0: 6ea7 d63d 41ec 0a3e db58 723d e91a 3a3e
000002c0: 93d8 ab3d b542 6c3d 145e 823d cfa1 eb3d
000002d0: ba6d 983d 6dbc fd3d c321 053e 212d 1fbd
000002e0: 6885 8f3d a1f3 0e3e 3de2 b33c 875b df3d
000002f0: feb8 813d ba9f 233d ee11 1dbc 69ac 2e3d
00000300: ea33 303e 41a2 583e 259d 523d 8a67 24bd
00000310: 5a5c 45bc 0fbd a03d 2417 eb3d 860e 383e
00000320: a18b 433e 89c3 193e 49a1 0f3d 909d c73d
00000330: 2ff4 4f3c 73aa 4c3e 16cd 653d ea22 b4bc
00000340: 8fa1 b83d 227b c73d f2bb 323d 365a f83d
00000350: 54b3 ff3d 6626 913d c5b2 b8bc af83 1d3e
00000360: 0c2c 903d cceb 1f3e 2377 9e3d 1017 ccbd
00000370: cddc 473e 8f2a 003d 0a95 183e 0977 6a3d
00000380: ad17 593e e0bc 713d cc33 203e 66af d23d
00000390: f662 0b3e 10bb e0bb 04e9 c23c a195 e53d
000003a0: 5f59 263c 41c0 ba3c 5f43 223e c58b 403e
000003b0: 26df a83d 1757 e43d a707 ba3c 303a cb3d
000003c0: 1b1e a43d 8090 ed3d dff0 67bc 2d7d b13d
000003d0: 7ed2 ad3d 650f f23d 150d 8b3d f24e 043e
000003e0: 1e26 063e 5126 7a3c af8a d23d 616e 1e3e
000003f0: 0311 bf3c 7ce7 5c3d 41b4 f63d c657 2e3e

lstm.weight_hh_l0 f4 [512, 128]
0.050765213 -0.014231475 -0.033879533 0.06171786 -0.04949611 0.045841005 0.084870726 -0.04622322
-0.06988226 0.04814501 -0.04361784 -0.07135116 0.004846594 -0.08580368 -0.07743478 0.020606736
-0.011127238 0.02048218 -0.101630226 -0.05293131 -0.023026247 0.011692602 0.08563989 -0.095830046
-0.0057944767 0.0030711628 0.0034252421 -0.09014617 -0.024824819 0.07165277 -0.02229571 0.08024873
-0.055156887 0.03164872 -0.09144857 -0.008803874 0.068002716 0.045299105 0.07580989 -0.014952467
-0.032575242 0.044018187 0.02364402 0.10292436 0.082166776 0.07555361 -0.010378681 0.061708294
-0.02092384 -0.1145586 -0.13453482 0.025401363 -0.029811693 0.034293577 0.04213441 0.07658085
-0.073764995 0.054760627 -0.021570163 0.061073057 0.058686156 -0.11392037 0.04601803 -0.0087134065
0.046186283 -0.051506273 0.0030316666 0.035650417 -0.017823951 0.072217286 -0.05954576 -0.07267089
0.06626677 -0.08059423 0.049086742 -0.049349554 0.017437574 -0.04744964 0.0029748534 0.06283775
-0.044697717 -0.052561797 -0.10583986 0.038888555 0.04063488 -0.038610227 -0.039531488 -0.03060186
0.054596446 -0.059909068 -0.06753683 0.013000074 -0.029681196 -0.056977972 0.06370255 0.06924366
0.012029705 0.07355234 -0.07636427 -0.055230856 -0.020103617 0.067805484 -0.084436774 0.020832974
-0.10196297 -0.074389786 0.0054965494 -0.0361787 -0.018500127 0.06870791 -0.0077445107 -0.034602165
0.0109251 0.04558037 0.05013952 0.011615945 -0.046493962 0.029290464 -0.06252508 -0.07975222
-0.035785798 -0.006356784 0.028725637 0.0050165043 -0.03125416 -0.04131247 -0.05457264 -0.027504997
-0.04407147 0.041815497 0.0012738181 -0.041602325 -0.0266687 0.020506611 0.046446487 -0.009297563
0.066616945 -0.093145296 -0.005996374 0.05774242 -0.09118672 0.007897994 0.054879487 0.043531705
-0.08099042 -0.011934655 -0.028140571 -0.061035022 0.08680299 -0.068194956 0.061856236 0.012667858
-0.06923473 -0.04483364 -0.09925929 0.034506217 0.048906207 -0.09566689 -0.031215288 0.028660249
0.005288405 0.017319137 0.072734945 0.09761471 0.00067781535 0.064930655 0.004693436 -0.08910072
-0.015138619 -0.10960135 0.015932284 -0.06671003 -0.039440885 0.10018223 -0.040411036 -0.06848885
0.08589052 -0.037130002 0.029104218 0.0040265485 0.03289334 0.08738916 0.05782209 -0.076941706
-0.057628565 0.0060078287 -0.04583515 -0.10942487 -0.026375664 0.02566561 -0.045748018 -0.035116907
-0.05257672 0.11632031 0.103198186 0.051824424 -0.034748085 0.026151458 -0.016135434 -0.0024612022
0.04158074 0.026848622 0.046673 0.050558507 -0.054557275 0.023798635 -0.05085918 -0.046574555
-0.0052327933 0.062336594 0.052110042 -0.051954098 -0.067103766 0.062736444 0.06347269 -0.04890664
-0.05003165 -0.052271854 -0.05467599 -0.024691407 -0.0013778327 0.024713876 -0.0035078393 -0.009294133
0.041726615 -0.043628596 -0.05978145 0.09131206 -0.020790756 0.07729284 0.10273825 0.03395511
0.066652454 0.089056596 -0.049695387 0.03210676 -0.056978464 -0.024507444 0.05953774 -0.13458309
-0.082477376 -0.038735293 -0.0144351665 0.06275913 -0.039934892 -0.012967514 0.011229668 -0.044177063
-0.042796653 0.024011143 0.10941694 -0.0629631 0.060382113 0.09597578 -0.025168909 -0.06568918
00000000: 2fef 4f3d 222b 69bc 44c5 0abd decb 7c3d
00000010: 6fbc 4abd c7c3 3b3d b4d0 ad3d 8f54 3dbd
00000020: 6e1e 8fbd b433 453d 9fa8 32bd 8f20 92bd
00000030: 2dd0 9e3b d7b9 afbd 2096 9ebd 75cf a83c
00000040: 054f 36bc 3fca a73c 8223 d0bd 80ce 58bd
00000050: 8aa1 bcbc 5492 3f3c f763 af3d 8b42 c4bd
00000060: 98df bdbb 9045 493b 077a 603b 8e9e b8bd
00000070: 6b5d cbbc b0be 923d 7ea5 b6bc 7259 a43d
00000080: 30ec 61bd 17a2 013d 6349 bbbd 203e 10bc
00000090: 0245 8b3d 8e8b 393d 3742 9b3d 31fb 74bc
000000a0: 9e6d 05bd 6a4c 343d 1bb1 c13c 02ca d23d
000000b0: 0e47 a83d dabb 9a3d 580b 2abc d6c1 7c3d
000000c0: 7968 abbc b39d eabd 7fc3 09be 8516 d03c
000000d0: a737 f4bc 6c77 0c3d 2295 2c3d 6cd6 9c3d
000000e0: 1a12 97bd ae4c 603d e9b3 b0bc be27 7a3d
000000f0: e560 703d 154f e9bd 677d 3c3d adc2 0ebc
00000100: d42d 3d3d 3ef8 52bd edae 463b 2c06 123d
00000110: 8903 92bc a8e6 933d 41e6 73bd 7ad4 94bd
00000120: dfb6 873d 960e a5bd 2e0f 493d c222 4abd
00000130: 3ed9 8e3c 8e5a 42bd c2f5 423b 14b1 803d
00000140: f414 37bd 0a4b 57bd 92c2 d8bd 9b49 1f3d
00000150: c370 263d c225 1ebd c5eb 21bd c0b0 fabc
00000160: 86a0 5f3d 3663 75bd c050 8abd 43fe 543c
00000170: fb25 f3bc bc61 69bd 7c76 823d 9fcf 8d3d
00000180: 3d18 453c 9ca2 963d df64 9cbd c039 62bd
00000190: 57b0 a4bc 9add 8a3d 30ed acbd eaa9 aa3c
000001a0: f6d1 d0bd ac59 98bd 661c b43b 1e30 14bd
000001b0: 948d 97bc bcb6 8c3d aac5 fdbb 00bb 0dbd
000001c0: 31ff 323c 7bb2 3a3d 195f 4d3d ce50 3e3c
000001d0: 7470 3ebd 8ef2 ef3c 260d 80bd 2255 a3bd
000001e0: 2194 12bd 924c d0bb 0752 eb3c 7d61 a43b
000001f0: 5d04 00bd 4437 29bd 9087 5fbd 2952 e1bc
00000200: 4984 34bd ba46 2b3d 3ef6 a63a 3367 2abd
00000210: 5178 dabc 7bfd a73c ac3e 3e3d ce54 18bc
00000220: 776e 883d f6c2 bebd 3b7d c4bb 5183 6c3d
00000230: 1ac0 babd 9666 013c 50c9 603d 4d4e 323d
00000240: 4ede a5bd 9289 43bc 0e87 e6bc dcff 79bd
00000250: c4c5 b13d cca9 8bbd f75c 7d3d d98c 4f3c
00000260: f0ca 8dbd 7ba3 37bd 7448 cbbd 6456 0d3d
00000270: e051 483d 01ed c3bd 34b7 ffbc e6c8 ea3c
00000280: 5b4a ad3b dde0 8d3c 0ff6 943d 39ea c73d
00000290: 6baf 313a 5dfa 843d 65cb 993b 707a b6bd
000002a0: f807 78bc ac76 e0bd 6c84 823c 459f 88bd
000002b0: c48c 21bd 572c cd3d 0b86 25bd e243 8cbd
000002c0: 5ee7 af3d a115 18bd f86b ee3c 23f1 833b
000002d0: 2bbb 063d 17f9 b23d dbd6 6c3d 9d93 9dbd
000002e0: ee0b 6cbd 52dd c43b a3bd 3bbd 251a e0bd
000002f0: c711 d8bc af40 d23c 4662 3bbd bfd6 0fbd
00000300: b05a 57bd 5839 ee3d 9259 d33d d945 543d
00000310: 0254 0ebd 953b d63c 752e 84bc 1f4c 21bb
00000320: 9150 2a3d a4f1 db3c 302c 3f3d 7016 4f3d
00000330: 7377 5fbd 5bf5 c23c b751 50bd f6c4 3ebd
00000340: da77 abbb a854 7f3d 5771 553d d2cd 54bd
00000350: b36d 89bd f77b 803d f8fd 813d 5452 48bd
00000360: fded 4cbd 031b 56bd eef3 5fbd a245 cabc
00000370: 6598 b4ba c174 ca3c c7e3 65bb 6b46 18bc
00000380: 87e9 2a3d e6b3 32bd 65dd 74bd d101 bb3d
00000390: 6051 aabc b54b 9e3d 6e68 d23d 8314 0b3d
000003a0: 1581 883d 4e63 b63d 648d 4bbd 6182 033d
000003b0: 4062 69bd d6c3 c8bc d8dd 733d 26d0 09be
000003c0: e6e9 a8bd e6a8 1ebd 7a81 6cbc dc87 803d
000003d0: c592 23bd b275 54bc a4fc 373c 02f3 34bd
000003e0: 8b4b 2fbd 04b3 c43c fd15 e03d ccf2 80bd
000003f0: 3c53 773d f38e c43d 072f cebc 0c88 86bd

lstm.bias_ih_l0 f4 [512]
-0.012663368 0.093501724 0.026151093 0.024543041 0.14316107 0.15286586 0.04840763 0.13604556
0.07871704 0.04487571 0.16536303 0.04550335 0.016249245 0.13977344 0.15289594 0.016097294
0.038722917 0.13819914 0.049301747 0.118679866 0.1476259 0.17054708 0.12672381 0.15140383
0.09638009 0.13132775 0.11281443 0.13659501 0.072392166 0.05057675 0.045783393 0.03636153
0.0038930026 0.08332458 0.052837837 0.010941705 0.09025744 0.09062083 0.070182495 0.14369802
0.11050121 0.1352744 0.14583082 0.07230763 0.027398571 0.061352253 -0.020481972 0.15673918
0.16897953 0.15545842 0.056937005 0.07591657 0.06747468 0.096399404 0.0749635 0.030916288
0.029716875 0.02369127 0.09713357 0.16135299 -0.016774923 0.1458654 0.034627505 0.14235555
0.19088367 0.045695823 0.07510258 0.037802268 0.1317407 -0.026224704 0.12574945 0.03130798
0.11574449 0.08887024 0.08014111 0.018732999 0.0019156126 0.065821484 0.12187401 0.037824906
0.03197088 0.015418698 0.1430721 -0.03116675 0.07679567 0.08582333 0.1582352 0.10387592
0.114450745 0.088705376 0.08721453 0.101413734 0.1961419 0.107288115 0.10113705 0.08878968
0.15214196 0.021958578 -0.008160239 0.20226057 0.11430103 0.18637028 0.074647725 0.059338715
0.05909527 -0.006118921 0.06708414 0.051427033 -0.0075999172 0.0675732 0.0957056 0.24400525
0.121081956 0.14739738 -0.01034186 0.01638136 0.13408646 0.014488807 0.028923439 0.15470766
0.12453195 -0.004768822 0.065678984 0.035020307 0.1213342 0.022371529 0.20021932 0.07397329
0.027849535 -0.09509038 -0.021879785 -0.042297553 -0.045340884 0.029101994 -0.07637346 -0.046452437
0.017571716 -0.022147479 0.02135903 0.030755078 -0.029131781 0.002607187 0.014718212 0.06643744
0.047499396 0.030719915 0.0715537 -0.03891661 0.08667868 -0.06714879 0.049399957 0.08200716
-0.062299713 -0.060919736 -0.016777448 0.027623098 0.010061233 0.043545783 -0.016513564 0.0009414059
-0.0025895173 0.059744194 -0.027696144 0.076459125 -0.006219638 -0.027116014 0.079294756 0.09904987
-0.07008345 -0.07592002 0.0035923321 0.0064239753 0.0428385 0.023366215 -0.06609594 -0.041137952
0.090211414 0.063878104 0.058642928 0.08893357 0.08884582 0.039603245 0.015516284 0.069806054
0.033258572 -0.003130495 0.053283244 0.026199542 0.09559668 -0.0026746932 0.049568914 0.031348184
-0.12991418 0.029385217 0.009170953 -0.017237164 0.008717356 -0.050545145 -0.05777506 -0.013520532
0.08169487 -0.021497937 0.08506759 -0.0036163076 0.018089257 0.06603898 0.06535856 0.011946067
-0.038831692 -0.006678005 0.00536477 -0.06548368 -0.06242135 -0.018595865 0.0506071 0.060598698
0.08222281 -0.013499562 0.07270553 -0.06825145 -0.042896748 0.102435045 0.08651994 0.034553166
0.059127733 -0.06585814 0.004103982 -0.06947834 -0.010200365 -0.0408746 -0.03851806 0.0491685
0.013844775 0.039468657 0.017334178 -0.061472386 -0.035744373 0.068681315 0.104591586 -0.16561772
-0.018505612 -0.07104608 0.049851105 0.0020431664 -0.09605164 0.06811744 -0.024198154 0.050934967
-0.067907445 0.060345072 0.053179186 -0.045025717 -0.008999783 -0.030713405 -0.031614862 -0.020469494
00000000: 047a 4fbc d57d bf3d d13a d63c 7d0e c93c
00000010: d198 123e de88 1c3e 1447 463d 874f 0b3e
00000020: 6636 a13d 98cf 373d ed54 293e b961 3a3d
00000030: 231d 853c c520 0f3e c190 1c3e 79de 833c
00000040: ec9b 1e3d 1384 0d3e a1f0 493d 6e0e f33d
00000050: 3e2b 173e e5a3 2e3e e3c3 013e 9b09 1b3e
00000060: ed62 c53d c87a 063e 400b e73d 90df 0b3e
00000070: 5842 943d 9129 4f3d 5e87 3b3d d4ef 143d
00000080: bf21 7f3b 14a6 aa3d 7d6c 583d d644 333c
00000090: e5d8 b83d 6a97 b93d d7bb 8f3d 9325 133e
000000a0: 754e e23d 5f85 0a3e ad54 153e 0616 943d
000000b0: f872 e03c 804c 7b3d cfc9 a7bc 3c80 203e
000000c0: f808 2d3e 7e30 1f3e c736 693d 267a 9b3d
000000d0: 2a30 8a3d 0d6d c53d 7786 993d 2844 fd3c
000000e0: ce70 f33c 3214 c23c f7ed c63d b839 253e
000000f0: 906b 89bc bd5d 153e 92d5 0d3d a7c5 113e
00000100: 0277 433e 8b2b 3b3d 62cf 993d 8dd6 1a3d
00000110: 09e7 063e 31d5 d6bc 77c4 003e cc3c 003d
00000120: 720b ed3d 9a01 b63d 0621 a43d f275 993c
00000130: 4b15 fb3a 6acd 863d 1599 f93d 4aee 1a3d
00000140: e6f3 023d b59e 7c3c 7e81 123e 6951 ffbc
00000150: 0c47 9d3d 24c4 af3d 6908 223e e6bc d43d
00000160: 2765 ea3d 2aab b53d 889d b23d 01b2 cf3d
00000170: 6cd9 483e dfb9 db3d f120 cf3d 5dd7 b53d
00000180: 1acb 1b3e 7ae2 b33c 86b2 05bc 651d 4f3e
00000190: a916 ea3d dad7 3e3e e8e0 983d 270d 733d
000001a0: e20d 723d 3b81 c8bb 6963 893d 27a5 523d
000001b0: ba08 f9bb d163 8a3d 4c01 c43d 83dc 793e
000001c0: d1f9 f73d 57ef 163e e870 29bc 3432 863c
000001d0: f64d 093e 7662 6d3c d9f0 ec3c af6b 1e3e
000001e0: 9b0a ff3d c743 9cbb b482 863d 7471 0f3d
000001f0: 117e f83d 7f44 b73c 4b06 4d3e 4f7f 973d
00000200: b524 e43c bfbe c2bd 3c3d b3bc 3340 2dbd
00000210: 5db7 39bd 4e67 ee3c b069 9cbd e944 3ebd
00000220: 8ff2 8f3c a16e b5bc 22f9 ae3c 13f2 fb3c
00000230: c6a5 eebc 57dd 2a3b a824 713c 5a10 883d
00000240: ba8e 423d 55a8 fb3c bf8a 923d 0667 1fbd
00000250: 9784 b13d 4e85 89bd 9c57 4a3d 5ff3 a73d
00000260: fc2d 7fbd f986 79bd dc70 89bc d649 e23c
00000270: dfd7 243c 105d 323d 7447 87bc aec8 763a
00000280: e4b4 29bb 54b6 743d 06e3 e2bc 9a96 9c3d
00000290: 1bce cbbb 6722 debc 4a65 a23d a9da ca3d
000002a0: e987 8fbd f57b 9bbd 556d 6b3b 3680 d23b
000002b0: 6c77 2f3d 816a bf3c 4f5d 87bd 4580 28bd
000002c0: c3c0 b83d 86d2 823d 9133 703d ce22 b63d
000002d0: ccf4 b53d 0337 223d 0338 7e3c 7af6 8e3d
000002e0: 243a 083d fe28 4dbb 883f 5a3d 6ca0 d63c
000002f0: 31c8 c33d e849 2fbb c608 4b3d f466 003d
00000300: 3908 05be 44b9 f03c c441 163c f434 8dbc
00000310: 3ed3 0e3c 6d08 4fbd 8ba5 6cbd 3985 5dbc
00000320: a44f a73d 711c b0bc eb37 ae3d 93ff 6cbb
00000330: ec2f 943c 723f 873d b5da 853d 70b9 433c
00000340: fb0d 1fbd 2bd3 dabb f4ca af3b 4f1c 86bd
00000350: 88ad 7fbd 5b56 98bc 6449 4f3d 5736 783d
00000360: 6f64 a83d 442d 5dbc a3e6 943d 6bc7 8bbd
00000370: 80b4 2fbd 77c9 d13d 5e31 b13d 9f87 0d3d
00000380: ec2f 723d a2e0 86bd b27a 863b a94a 8ebd
00000390: 6f1f 27bc 206c 27bd 1dc5 1dbd e964 493d
000003a0: 32d5 623c e3a9 213d 6800 8e3c 78ca 7bbd
000003b0: b168 12bd caa8 8c3d 1d34 d63d b197 29be
000003c0: 1599 97bc 9b80 91bd ac30 4c3d a5e6 053b
000003d0: b9b6 c4bd 2881 8b3d 353b c6bc 2fa1 503d
000003e0: 0f13 8bbd 652c 773d 6bd2 593d e36c 38bd
000003f0: d373 13bc ae9a fbbc 967e 01bd a4af a7bc

lstm.bias_hh_l0 f4 [512]
0.009657759 0.01634499 -0.0031791278 0.018387709 0.013073973 0.09355039 -0.017600229 0.06557086
0.14981776 0.0356906 0.17300227 0.15606064 0.1004092 0.08200492 0.14051351 0.069410406
0.11332638 -0.026470855 0.1093678 0.1317884 0.05014637 0.14518197 0.02118285 0.081934325
0.015824089 0.12827325 0.037054904 0.11736419 0.082272336 0.13817239 0.11796284 0.03710264
0.04415883 0.15796475 0.15063675 0.034086958 0.114791065 0.09054741 0.14867434 0.15908298
0.086175725 0.13241099 0.06044137 0.1809701 0.058406524 0.09738224 -0.026513994 0.1896624
0.06412619 0.16842669 0.17929216 0.18684445 0.014679821 0.04213434 0.025277104 0.076154
0.18071613 0.08262655 0.10919806 0.14717424 0.09415903 0.19456054 0.057543643 0.08836141
0.065086454 0.17379977 0.12853114 0.067298345 0.17861356 0.08508671 0.1946198 0.09454702
0.0194364 0.1390326 0.23627485 0.0014942416 0.015824104 0.08622678 0.03743809 -0.0077897604
0.074990414 0.077746466 0.056884293 0.077517785 0.15329942 0.16975516 0.12220444 0.14455952
0.23772052 0.10874064 0.13570923 0.14434865 0.11768583 0.037271623 0.1219935 -0.013816128
0.08306932 0.04779604 0.067691825 0.14467447 0.19163671 0.19863863 0.0645611 0.091371395
0.1652506 0.008521294 0.09198345 0.1719674 0.12272561 0.05880497 0.07741572 0.14925812
0.12952809 0.09868862 0.07572738 0.06906925 0.0658158 0.15668732 0.13907482 0.14441666
0.007303927 0.13208725 0.22159348 0.05321221 0.055312492 0.05568991 0.15781352 -0.014871699
0.079041325 0.049109634 0.07823403 -0.00195576 0.01557225 0.0514828 0.019096809 0.050960105
0.05103276 -0.05287873 0.0049616694 -0.0850856 0.01093802 -0.051744428 0.052917648 0.026854342
0.023560623 0.070318535 0.0069256327 0.092005946 0.012372315 -0.025879834 -0.021975452 -0.03271833
-0.059030112 -0.039776105 0.060282998 0.03789749 -0.03183994 0.058735855 -0.015711227 0.07875974
0.094310254 -0.065791264 -0.056577995 -0.04880595 0.034819506 -0.06529521 0.01517437 0.04591875
0.022789903 -0.03969254 0.029046929 -0.07081151 -0.004275917 0.0056636543 0.056720875 0.05422533
0.07467525 0.09506465 0.08375007 -0.019750593 0.03475201 -0.011850038 0.09285734 -0.035321265
-0.015031163 -0.004437543 0.09430245 0.041052885 0.063130826 0.005855569 0.089380115 0.085575946
-0.06751601 -0.07592848 0.023207875 -0.0028948842 -0.084094845 -0.03974921 0.02321751 -0.07030587
0.08300145 -0.02773224 0.036531754 -0.051291365 0.06789321 0.016309408 -0.00063243276 0.07488296
0.0031154964 0.05281316 -0.055796243 0.052741464 -0.016904732 0.033081267 0.08901141 0.038263265
0.044350766 -0.058263995 0.03462819 0.046683554 -0.038654044 -0.017883 -0.023900295 -0.016453695
-0.021351986 -0.034694307 0.08403212 0.07590252 0.0550177 0.02876 -0.013427554 -0.041742377
0.024987668 -0.057100274 0.070892565 0.039560914 -0.06433247 0.048375838 0.06672512 -0.12181553
0.045456666 -0.017616807 -0.043632593 -0.017397445 0.028777681 -0.04609366 0.020745495 0.0898705
0.08632794 0.012034758 0.014158545 -0.052853372 0.0045334226 -0.04542646 -0.044581655 0.037934296
00000000: 943b 1e3c eee5 853c ea58 50bb d2a1 963c
00000010: 3834 563c 5997 bf3d 5b2e 90bc 044a 863d
00000020: d469 193e 4e30 123d 8227 313e 5cce 1f3e
00000030: 57a3 cd3d 32f2 a73d c6e2 0f3e 0b27 8e3d
00000040: a917 e83d 68d9 d8bc 3afc df3d 8af3 063e
00000050: 4866 4d3d 95aa 143e a887 ad3c 2fcd a73d
00000060: 85a1 813c 105a 033e e2c6 173d a35c f03d
00000070: 667e a83d 107d 0d3e 8096 f13d f0f8 173d
00000080: e4df 343d 83c1 213e 8540 1a3e c49e 0b3d
00000090: 9417 eb3d ec70 b93d 163e 183e a6e6 223e
000000a0: e67c b03d bf96 073e 5f91 773d 3a50 393e
000000b0: ae3b 6f3d 5770 c73d e033 d9bc dc36 423e
000000c0: 9854 833d 0c78 2c3e 5d98 373e 2754 3f3e
000000d0: a283 703c 0f95 2c3d ee11 cf3c a1f6 9b3d
000000e0: a60d 393e 1c38 a93d 3ca3 df3d d8b4 163e
000000f0: 73d6 c03d e13a 473e e2b2 6b3d d4f6 b43d
00000100: 0c4c 853d 91f8 313e ab9d 033e b7d3 893d
00000110: 79e6 363e f141 ae3d 6a4a 473e dea1 c13d
00000120: 1639 9f3c 905e 0e3e 09f2 713e 6eda c33a
00000130: 8da1 813c ab97 b03d af58 193d 3f41 ffbb
00000140: 9394 993d 8a39 9f3d 81ff 683d a5c1 9e3d
00000150: 86fa 1c3e 4cd4 2d3e 5246 fa3d 6907 143e
00000160: 026d 733e 6ab3 de3d 5cf7 0a3e 22d0 133e
00000170: 4505 f13d 21aa 183d bad7 f93d 0a5d 62bc
00000180: 3f20 aa3d c8c5 433d 03a2 8a3d 8b25 143e
00000190: 6a3c 443e ed67 4b3e 9c38 843d ed20 bb3d
000001a0: 7437 293e e69c 0b3c d261 bc3d 3918 303e
000001b0: 9157 fb3d 7bdd 703d 228c 9e3d 1fd7 183e
000001c0: 03a3 043e 421d ca3d f516 9b3d 2e74 8d3d
000001d0: 6fca 863d a472 203e a169 0e3e f6e1 133e
000001e0: c855 ef3b e141 073e 67e9 623e 0cf5 593d
000001f0: 5a8f 623d 1a1b 643d de99 213e 6da8 73bc
00000200: 6be0 a13d 2f27 493d 2a39 a03d 352c 00bb
00000210: c022 7f3c a1df 523d e970 9c3c 8bbb 503d
00000220: ba07 513d 5e97 58bd 8095 a23b 5c41 aebd
00000230: 6235 333c f7f1 53bd 2dc0 583d a3fd db3c
00000240: 3502 c13c 2a03 903d 6bf0 e23b 9d6d bc3d
00000250: 40b5 4a3c f201 d4bc dd05 b4bc a803 06bd
00000260: 8fc9 71bd 45ec 22bd 4eeb 763d 663a 1b3d
00000270: 996a 02bd 0295 703d d5b4 80bc c94c a13d
00000280: bc25 c13d 92bd 86bd 54be 67bd bfe8 47bd
00000290: e69e 0e3d 7fb9 85bd ec9d 783c 4d15 3c3d
000002a0: e4b1 ba3c a594 22bd d3f3 ed3c a005 91bd
000002b0: fe1c 8cbb 2d96 b93b 2654 683d 611b 5e3d
000002c0: 56ef 983d 41b1 c23d 2885 ab3d ffcb a1bc
000002d0: 2058 0e3d a926 42bc fd2b be3d 08ad 10bd
000002e0: 4445 76bc cf68 91bb a521 c13d 1227 283d
000002f0: bc4a 813d 13e0 bf3b ec0c b73d 7142 af3d
00000300: d545 8abd 6480 9bbd 711e be3c 19b8 3dbb
00000310: eb39 acbd 11d0 22bd a632 be3c 86fc 8fbd
00000320: aafc a93d b92e e3bc 52a2 153d e516 52bd
00000330: 980b 8b3d 4f9b 853c d8c9 25ba 3d5c 993d
00000340: 5b2d 4c3b 9d52 583d 9a8a 64bd 6f07 583d
00000350: cb7b 8abc 3980 073d 9d4b b63d f1b9 1c3d
00000360: 26a9 353d 3aa6 6ebd 4ad6 0d3d 4137 3f3d
00000370: b453 1ebd 5f7f 92bc 8dca c3bc e6c9 86bc
00000380: 5cea aebc 9e1b 0ebd 0819 ac3d c872 9b3d
00000390: 3d5a 613d 179a eb3c 3eff 5bbc 0efa 2abd
000003a0: f0b2 cc3c fae1 69bd 1f30 913d a00a 223d
000003b0: bec0 83bd be25 463d 2ea7 883d 6c7a f9bd
000003c0: c530 3a3d 1f51 90bc 17b8 32bd 1685 8ebc
000003d0: 2cbf eb3c b5cc 3cbd 75f2 a93c 060e b83d
000003e0: b4cc b03d 6f2d 453c 3ef9 673c c77c 58bd
000003f0: 1b8d 943b 1911 3abd 419b 36bd fe60 1b3d

lstm.weight_ih_l1 f4 [512, 128]
0.0014903267 -0.11643865 0.10422421 0.06815889 -0.055830117 0.030223807 0.08784571 -0.094943486
-0.011073904 0.04393979 -0.068394296 0.12223696 0.027126485 0.046623845 -0.100798175 -0.06300696
-0.048316553 -0.051722325 -0.07931919 0.04262211 -0.081700414 0.18778491 0.04032753 -0.052718043
0.0709729 0.06572048 0.06843562 -0.048346158 0.06774428 0.07069147 -0.020748686 0.08260905
0.12572518 -0.07977515 -0.07290837 -0.018255282 0.030685714 0.058292035 -0.04873252 0.051454242
0.035592128 -0.024210129 -0.032792766 0.0059929877 0.019977605 0.1268388 -0.006110168 0.06706644
0.19936657 -0.024542725 0.04068807 0.14397691 -0.000983962 -0.039820887 0.050120637 -0.009679297
-0.13031308 -0.04400769 -0.080775045 0.1268922 -0.10897556 0.16442955 -0.07228093 -0.025350181
-0.0664768 -0.017781451 -0.022823649 0.039117545 -0.01819137 -0.098173454 -0.029492704 -0.007625597
0.13884848 -0.03763161 -0.02454966 0.081890546 0.041485786 -0.01619939 -0.013393236 -0.10739168
-0.055208474 0.031325024 -0.11183097 0.08886377 0.017848592 -0.0053127147 0.029157065 -0.0031331608
-0.10007811 -0.02004027 -0.096551955 0.087052025 0.09998946 -0.12163441 0.0005483689 0.0014769289
0.12490052 -0.057581715 -0.11735229 -0.029247442 -0.20123933 0.19466527 -0.041047566 0.06397295
0.060394865 0.007739648 0.010922588 0.088726126 0.029404275 0.05766722 0.1340999 0.112365685
-0.017359413 -0.011685294 -0.021102127 0.021397855 -0.08530337 -0.025051864 -0.098948225 -0.05694592
-0.048083797 -0.02981989 -0.11018299 -0.023475716 -0.0046927077 0.035045415 -0.082043156 0.07069495
0.015711216 -0.047077123 0.09346421 -0.015873024 -0.040849842 -0.12597655 0.14267021 -0.054511607
0.04421573 0.11025435 -0.053736996 0.12650776 -0.01575141 -0.13639969 -0.086724564 0.007066783
0.1292619 -0.06696938 -0.0155127235 -0.07996702 -0.0061970656 0.0310947 0.13701828 -0.06467483
0.113542326 0.083910614 -0.023481904 -0.113410115 -0.12341777 0.14704645 0.13608637 0.12602316
0.023108274 -0.06474555 -0.04451706 0.029369317 -0.12612328 0.045375384 0.023544028 0.1743071
0.015273948 -0.010362351 -0.076869465 0.024121549 0.09476147 0.15872376 -0.13492018 0.058276515
0.14135766 -0.17520292 -0.19960847 0.030950202 0.06649289 -0.11121772 0.0765055 0.08839645
-0.061131705 0.0081824185 0.13067997 -0.0078386655 -0.018266907 0.13705738 -0.06007162 -0.12661491
-0.042684246 -0.12861456 -0.029518453 -0.006548044 0.02675121 -0.03525721 -0.015878728 -0.1354352
0.1182399 -0.16917922 0.17709956 0.108395696 -0.0045688436 -0.11902724 -0.017376762 -0.08379771
-0.06273344 -0.03615332 -0.103206016 0.0009743944 -0.049199782 -0.1090734 -0.043821983 -0.008118208
0.0005887501 0.03168744 -0.12998332 0.05832739 0.124441795 -0.1555093 -0.00086727925 -2.3887624e-05
0.019401204 0.1382568 -0.044950206 -0.016385071 -0.18074588 0.07504138 -0.101399854 0.027816638
-0.138788 -0.081633635 0.02271979 0.0033819696 -0.10661535 -0.030104998 0.030209944 0.143105
0.118418485 0.0026526034 -0.06348453 -0.018596385 -0.14095119 0.021204537 -0.009085444 -0.1230988
0.037470408 -0.032114074 -0.09654328 -0.0018997864 -0.005282012 -0.10125404 -0.04336963 0.033692174
00000000: 1157 c33a 6377 eebd 8173 d53d e396 8b3d
00000010: 1fae 64bd eb97 f73c 74e8 b33d bb71 c2bd
00000020: 526f 35bc 36fa 333d 4f12 8cbd 5f57 fa3d
00000030: 5d38 de3c a5f8 3e3d 466f cebd cb09 81bd
00000040: 94e7 45bd cada 53bd 1972 a2bd 8694 2e3d
00000050: 8c52 a7bd b04a 403e 7b2e 253d e0ee 57bd
00000060: 3d5a 913d 7698 863d f927 8c3d 9f06 46bd
00000070: 83bd 8a3d b0c6 903d 26f9 a9bc ef2e a93d
00000080: 1abe 003e 2761 a3bd fc50 95bd 1a8c 95bc
00000090: 9b60 fb3c a1c3 6e3d c09b 47bd afc1 523d
000000a0: 0dc9 113d 5254 c6bc b551 06bd d360 c43b
000000b0: 13a8 a33c 08e2 013e ce37 c8bb 215a 893d
000000c0: c026 4c3e d30d c9bc 89a8 263d af6e 133e
000000d0: 49f8 80ba 3a1b 23bd 4c4b 4d3d ea95 1ebc
000000e0: cb70 05be 6841 34bd 636d a5bd 07f0 013e
000000f0: 942e dfbd 3860 283e 0608 94bd 2fab cfbc
00000100: fd24 88bd 68aa 91bc a9f8 babc b839 203d
00000110: 1106 95bc 2a0f c9bd af9a f1bc 25e0 f9bb
00000120: 4c2e 0e3e 9a23 1abd 5e1c c9bc 3bb6 a73d
00000130: 00ed 293d 95b4 84bc 4e6f 5bbc 2bf0 dbbd
00000140: 4822 62bd ab4e 003d a307 e5bd 35fe b53d
00000150: 3637 923c 4816 aebb ccda ee3c b755 4dbb
00000160: c1f5 ccbd 7e2b a4bc 08bd c5bd 5548 b23d
00000170: 46c7 cc3d 761b f9bd 6ac0 0f3a 8395 c13a
00000180: d8cb ff3d ceda 6bbd 6656 f0bd 5598 efbc
00000190: af11 4ebe 5556 473e 7e21 28bd 4004 833d
000001a0: 9b60 773d e09c fd3b a8f4 323c 0bb6 b53d
000001b0: 3ce1 f03c 7634 6c3d 7c51 093e fb1f e63d
000001c0: 5435 8ebc ad73 3fbc 5ede acbc 8e4a af3c
000001d0: 89b3 aebd 9139 cdbc 5ea5 cabd 2040 69bd
000001e0: 84f3 44bd d848 f4bc 9fa7 e1bd 2550 c0bc
000001f0: 49c5 99bb c88b 0f3d 3e06 a8bd 84c8 903d
00000200: cfb4 803c f1d3 40bd 2a6a bf3d 2508 82bc
00000210: 2a52 27bd ffff 00be 2418 123e 9047 5fbd
00000220: 8e1b 353d 08cd e13d 531b 5cbd 408b 013e
00000230: 1a09 81bc 5cac 0bbe a69c b1bd 7990 e73b
00000240: 3b5d 043e 3e27 89bd 1429 7ebc c0c5 a3bd
00000250: c110 cbbb 50ba fe3c 854e 0c3e 3d74 84bd
00000260: e188 e83d 54d9 ab3d 1f5d c0bc 9043 e8bd
00000270: 75c2 fcbd 5893 163e 3a5a 0b3e 370c 013e
00000280: 904d bd3c 5199 84bd 8557 36bd ec97 f03c
00000290: 7626 01be 8adb 393d 68df c03c 8f7d 323e
000002a0: 953f 7a3c dac6 29bc bd6d 9dbd 8e9a c53c
000002b0: 4d12 c23d 7b88 223e 8428 0abe 5bb3 6e3d
000002c0: 10c0 103e 6568 33be 2a66 4cbe 478b fd3c
000002d0: 6d2d 883d 1ec6 e3bd eaae 9c3d 3309 b53d
000002e0: 3d65 7abd 8d0f 063c f8d0 053e bf6d 00bc
000002f0: 7ba4 95bc c558 0c3e a90d 76bd 57a7 01be
00000300: add5 2ebd 89b3 03be afd0 f1bc f990 d6bb
00000310: 5b25 db3c dd69 10bd 1b14 82bc 86af 0abe
00000320: c327 f23d 513d 2dbe 9659 353e 90fe dd3d
00000330: 3db6 95bb 8ec4 f3bd b659 8ebc 229e abbd
00000340: 647a 80bd 8115 14bd ad5d d3bd 806e 7f3a
00000350: b685 49bd e061 dfbd ae7e 33bd 3b02 05bc
00000360: 5a56 1a3a b0ca 013d 591a 05be b4e8 6e3d
00000370: 57db fe3d d43d 1fbe 205a 63ba 4862 c8b7
00000380: 46ef 9e3c 3193 0d3e b51d 38bd fc39 86bc
00000390: 7315 39be 4caf 993d baaa cfbd b8df e33c
000003a0: 711e 0ebe 892f a7bd da1e ba3c 09a4 5d3b
000003b0: 2659 dabd c29e f6bc d87a f73c 1e8a 123e
000003c0: 6485 f23d 4dd7 2d3b 2d04 82bd 7257 98bc
000003d0: 8255 10be 23b5 ad3c 1ddb 14bc 391b fcbd
000003e0: 927a 193d 0c8a 03bd 7cb8 c5bd 4102 f9ba
000003f0: ba14 adbb 475e cfbd 5aa4 31bd ce00 0a3d

lstm.weight_hh_l1 f4 [512, 128]
0.031199193 -0.074911155 0.025499186 0.06745586 0.09320622 0.10402136 0.050191388 -0.05043252
-0.009377625 0.08306653 -0.06460886 0.068312615 -0.017283667 -0.03651118 -0.122831196 -0.06300826
0.0015512729 0.059186306 0.001491331 0.016025519 -0.035012953 0.038760975 0.026335219 7.936249e-05
0.018834578 0.014559719 -0.015955463 0.05210946 0.001965789 0.07311664 -0.030636484 0.00473047
-0.050039962 -0.058039237 0.059935614 -0.08419722 0.08114959 0.019742822 0.058818053 0.008854111
0.0029059453 -0.08900599 -0.055732958 -0.06625539 0.08896318 -0.092223056 -0.061085533 0.014132515
-0.028735835 0.050631132 0.00616161 0.078298226 -0.0060724057 0.0044703595 0.023970228 -0.05778102
-0.08392716 0.035445355 -0.015437962 -0.009427442 -0.031745363 -0.022727892 -0.018259846 0.07445284
0.09141879 -0.038951747 0.080451064 0.07915472 -0.049679007 -0.034755692 -0.0071785944 0.04768068
0.044960007 0.0633498 0.053860363 0.024906302 -0.014809138 0.04591506 0.008647482 0.027866416
-0.018409332 -0.056296367 0.0082968585 0.07580124 -0.0106007755 0.03223471 0.049503226 0.043568924
0.08768638 0.034549154 -0.069480635 0.04026829 -0.034146544 -0.010422768 -0.0770416 0.06769112
-0.040974647 -0.07464041 0.013415491 0.077849716 -0.034047462 0.06929855 -0.05477252 -0.0013477635
-0.031526644 0.059669908 0.07721067 0.06755436 -0.029969616 0.017692225 0.019147635 -0.06287086
-0.082903236 0.06272824 0.018117085 0.02529511 -0.010817374 0.02072772 0.05643151 0.03760712
-0.08111808 -0.07390403 0.01443599 -0.033024248 -0.010241685 0.040980093 -0.007583131 -0.027882395
0.032583363 0.012296744 -0.07708889 0.06285322 0.022674553 0.06101217 -0.033093955 -0.07309213
0.030651206 0.1056705 -0.0027149147 -0.09723053 -0.005397109 -0.02802486 0.024972139 0.040386416
0.080658175 -0.01268359 0.063225694 0.0076528233 0.09167514 -0.051649198 -0.088021584 0.0669936
-0.017251505 0.03383425 0.13134597 -0.06717197 0.07356705 -0.08973615 -0.10731148 0.03569889
-0.08803977 0.019573322 0.03612071 -0.109760076 0.06285962 0.04423778 0.077285394 0.058995444
0.080689386 0.06031041 0.10964365 -0.023873914 -0.04192784 -0.037704445 -0.057256535 0.06346151
0.04140927 0.08340378 -0.09422613 0.062447954 0.00026793394 -0.043804336 -0.030227305 -0.009116202
-0.0045643197 0.057022795 -0.014399114 0.09369846 0.05727152 -0.08401423 -0.06270741 -0.069999695
0.020671237 0.036389418 0.012792289 0.0018284321 -0.06242251 -0.06541762 0.001724133 0.015734589
-0.05181679 0.048522357 -0.021535246 -0.06813505 -0.08050629 -0.02275118 -0.013256283 -0.06314736
0.0024600553 -0.08618821 0.053376485 0.03320533 0.0631143 0.10998598 0.019705012 0.09562452
-0.06420414 0.017072583 0.050158653 0.08986222 -0.013914053 -0.0026144949 -0.016664948 -0.045445573
-0.08603406 -0.055849746 0.06257525 0.05235039 -0.021380743 0.0041117836 -0.043570027 -0.01963455
0.017316658 0.032432333 0.07572851 0.044667255 -0.018058334 -0.025096184 -0.06400525 0.0065503223
-0.057104427 -0.02111205 -0.020463245 -0.048822485 -0.06646719 -0.040638044 -0.014242659 -0.053457566
0.029105932 0.0888995 0.032678388 0.03670663 0.038769137 -0.06701281 -0.0029168867 -0.06591006
00000000: 7395 ff3c 056b 99bd abe3 d03c 4c26 8a3d
00000010: e7e2 be3d 2709 d53d 7c95 4d3d 5592 4ebd
00000020: 9ca4 19bc c91e aa3d a651 84bd 7ce7 8b3d
00000030: 7a96 8dbc bf8c 15bd ec8e fbbd 7a0a 81bd
00000040: 1554 cb3a 576d 723d c478 c33a f347 833c
00000050: be69 0fbd d4c3 1e3d f5bc d73c 6a6f a638
00000060: f94a 9a3c e38b 6e3c 08b5 82bc bb70 553d
00000070: 77d4 003b 2dbe 953d 5df9 fabc 0f02 9b3b
00000080: b4f6 4cbd 8dba 6dbd 0c7f 753d 986f acbd
00000090: c231 a63d b3bb a13c 33eb 703d d510 113c
000000a0: ac71 3e3b c648 b6bd 3e48 64bd e8b0 87bd
000000b0: 5432 b63d 71df bcbd d334 7abd 108c 673c
000000c0: 6a67 ebbc 9762 4f3d 55e7 c93b d25a a03d
000000d0: 08fb c6bb 187c 923b 365d c43c caab 6cbd
000000e0: 01e2 abbd 262f 113d 81ef 7cbc 8f75 1abc
000000f0: 6d07 02bd d82f babc ac95 95bc bb7a 983d
00000100: c639 bb3d de8b 1fbd 87c3 a43d df1b a23d
00000110: 377c 4bbd fc5b 0ebd 6a3a ebbb d14c 433d
00000120: fc27 383d 8abd 813d af9c 5c3d 4d08 cc3c
00000130: 07a2 72bc 6e11 3c3d 2bae 0d3c 1c48 e43c
00000140: 2bcf 96bc 0597 66bd 8cef 073c ae3d 9b3d
00000150: e0ae 2dbc 8b08 043d e5c3 4a3d 5475 323d
00000160: eb94 b33d 6a83 0d3d dd4b 8ebd 5df0 243d
00000170: 3fdd 0bbd 42c4 2abc fdc7 9dbd a4a1 8a3d
00000180: 08d5 27bd 12dd 98bd a6cc 5b3c ac6f 9f3d
00000190: 5a75 0bbd 66ec 8d3d 2659 60bd 70a7 b0ba
000001a0: 1522 01bd 6f68 743d a120 9e3d f159 8a3d
000001b0: d782 f5bc 49ef 903c 80db 9c3c 70c2 80bd
000001c0: 2cc9 a9bd aa77 803d 486a 943c b137 cf3c
000001d0: 5b3b 31bc 2ecd a93c ba24 673d ec09 1a3d
000001e0: 3c21 a6bd ff5a 97bd ee84 6c3c 6f44 07bd
000001f0: becc 27bc beda 273d ea7b f8bb 9f69 e4bc
00000200: 2276 053d 4878 493c c8e0 9dbd 30b9 803d
00000210: fcbf b93c e6e7 793d 878d 07bd 54b1 95bd
00000220: 3d18 fb3c c669 d83d b6ec 31bb cd20 c7bd
00000230: 3bda b0bb 6494 e5bc 5f92 cc3c 3a6c 253d
00000240: 1d30 a53d d5ce 4fbc 797c 813d 89c4 fa3b
00000250: 2dc0 bb3d 1c8e 53bd a944 b4bd f133 893d
00000260: 0753 8dbc c895 0a3d 8f7f 063e 7591 89bd
00000270: 52aa 963d 96c7 b7bd 1fc6 dbbd 0039 123d
00000280: 324e b4bd 3b58 a03c 4ff3 133d e4c9 e0bd
00000290: 8bbc 803d ad32 353d ce47 9e3d 35a5 713d
000002a0: 7a40 a53d 0c08 773d da8c e03d 3a93 c3bc
000002b0: 87bc 2bbd fa6f 1abd d485 6abd 1cf8 813d
000002c0: c49c 293d 9acf aa3d a1f9 c0bd 6dc9 7f3d
000002d0: 7c79 8c39 2d6c 33bd 419f f7bc 1f5c 15bc
000002e0: 4a90 95bb bc90 693d 43ea 6bbc fae4 bf3d
000002f0: 8b95 6a3d a70f acbd be6c 80bd 005c 8fbd
00000300: ba56 a93c 120d 153d c096 513c 00a8 ef3a
00000310: bfae 7fbd acf9 85bd 4efc e13a d3e5 803c
00000320: d83d 54bd 61bf 463d af6a b0bc 648a 8bbd
00000330: 7be0 a4bd af60 babc e130 59bc 6753 81bd
00000340: e138 213b 7283 b0bd 4da1 5a3d 5002 083d
00000350: 1242 813d 5440 e13d 686c a13c cad6 c33d
00000360: 767d 83bd cddb 8b3c 2973 4d3d af09 b83d
00000370: c5f7 63bc f257 2bbb ee84 88bc 2325 3abd
00000380: a032 b0bd b4c2 64bd 7427 803d 5d6d 563d
00000390: ab26 afbc 24bc 863b 7c76 32bd a3d8 a0bc
000003a0: aadb 8d3c c4d7 043d 8d17 9b3d 03f5 363d
000003b0: 12ef 93bc 8396 cdbc 2f15 83bd 16a4 d63b
000003c0: 55e6 69bd 2ef3 acbc 89a2 a7bc 16fa 47bd
000003d0: f31f 88bd 1474 26bd 0b5a 69bc 52f6 5abd
000003e0: 906f ee3c f110 b63d c6d9 053d b159 163d
000003f0: 63cc 1e3d 033e 89bd 3d29 3fbb dbfb 86bd

lstm.bias_ih_l1 f4 [512]
0.031300377 0.07052521 -0.028260157 0.020144373 0.045996007 0.020023832 0.08704804 0.093919665
0.12125917 0.09558774 0.07485629 0.021032931 0.121104546 0.10532161 0.044815555 0.15979971
0.16550322 0.05937509 -0.03473113 0.06381145 0.033780593 0.058372118 0.027804239 0.09471754
0.13077961 0.094821535 0.081306346 0.14210756 0.03319928 -0.037881315 0.059644576 0.117345005
0.08081951 0.14290826 0.019571159 0.12812676 0.15337132 0.07819949 0.03773024 0.012970367
0.03132683 0.10395194 -0.014313886 0.120229565 0.0059451177 0.10629475 0.06744392 0.046857964
0.10766296 -0.005388466 0.09157773 0.010781387 0.0397236 -0.056142006 0.18333013 0.13971314
-0.0043036467 0.14685345 0.008073387 0.14045666 0.028791659 -0.00979167 0.12140901 0.0743165
0.09880029 0.05356132 0.15745598 -0.029841933 0.15366164 0.15154876 0.06423944 0.11517346
0.058847997 0.10710391 0.10458976 0.03908 0.12936214 0.07477397 0.0066683902 -0.017614232
0.08102204 0.021673633 0.13669619 0.062950075 0.16707304 0.14702027 0.01994767 -0.00267295
-0.011329397 0.015195669 0.085193165 0.012443937 0.06338 0.11038343 0.10823714 0.051546223
0.017885284 0.0066531384 0.10896408 -0.016587108 0.20597742 0.0825611 0.020811291 0.13099283
-0.00075057056 0.011777523 -0.062209155 0.0026736348 0.0073554516 0.026928594 0.114980884 0.124291986
0.12523514 -0.0007126232 -0.02813178 0.027260214 0.0026003036 0.058470152 0.06052491 0.13049532
0.004690065 0.082897864 0.111168355 0.0436268 0.01863426 0.18786657 0.10116125 0.057547864
0.045968506 -0.040877737 -0.07435495 0.10435295 0.11273567 -0.00082111935 0.057231106 -0.0723776
0.03720045 -0.022658596 0.090232804 0.08047749 0.0027456891 -0.05462884 0.024456779 0.021369174
-0.046882905 0.09558347 -0.06305613 0.037875548 -0.04814416 -0.07565227 0.059515018 -0.030277476
0.028626012 -0.02045905 0.013942706 0.080334894 -0.025603758 -0.013226057 -0.01827963 0.022309767
0.10008515 0.041615475 -0.05278291 -0.026546702 -0.041925192 0.05049106 0.0783513 0.014657093
-0.055445146 0.09106256 0.07759458 0.06880837 -0.056986235 0.0091802515 -0.0026657325 -0.0025173419
-0.033822246 -0.025941262 0.07524514 0.07601736 -0.06491757 -0.019972503 -0.10082519 0.0057774694
0.09332024 0.021714788 -0.024577683 0.046332568 -0.028320756 0.039804224 0.10195377 0.11390695
-0.08859888 0.037919253 -0.022120075 -0.04183139 0.040368583 0.042897627 0.11032349 0.0010272667
0.09683981 -0.039734397 -0.033718668 -0.0037213478 0.0882527 0.084618635 -0.032924056 0.093019746
0.01151111 -0.06210643 0.06793227 -0.043978486 -0.013994863 0.03084868 0.047856204 0.08289045
0.07234122 0.021550164 -0.03630996 0.03252208 -0.04209538 -0.070755124 0.01202378 -0.08775089
0.06738318 -0.030027915 0.0077067553 -0.016736457 -0.1385471 -0.026809905 -0.073653266 0.05755814
0.066810995 0.082738996 -0.033386298 0.04556625 0.06418847 -0.02231668 0.085146524 -0.023535404
0.045048345 -0.058805935 -0.049343225 -0.049457714 -0.07745902 0.030905504 0.09255544 0.0156019125
-0.036103323 0.07797199 0.05243526 -0.107500374 -0.060491398 0.060318287 0.018955885 -0.085890986
00000000: d334 003d 856f 903d d881 e7bc d005 a53c
00000010: 4f66 3c3d 0509 a43c 3e46 b23d f458 c03d
00000020: ba56 f83d 81c3 c33d 414e 993d 414d ac3c
00000030: a905 f83d dbb2 d73d 8490 373d 89a2 233e
00000040: ad79 293e 4b33 733d 3b42 0ebd 94af 823d
00000050: 855d 0a3d 9a17 6f3d b7c5 e33c 45fb c13d
00000060: 17eb 053e cb31 c23d f183 a63d a584 113e
00000070: f8fb 073d 7029 1bbd df4d 743d 9452 f03d
00000080: b384 a53d 8b56 123e b253 a03c a933 033e
00000090: 5f0d 1d3e 0e27 a03d 068b 1a3d aa81 543c
000000a0: 9050 003d c1e4 d43d ca84 6abc eb3a f63d
000000b0: 43cf c23b 10b1 d93d 0a20 8a3d 23ee 3f3d
000000c0: 667e dc3d bb91 b0bb 1b8d bb3d 6aa4 303c
000000d0: 37b5 223d 29f5 65bd e5ba 3b3e f610 0f3e
000000e0: 9b05 8dbb c060 163e 3d46 043c dfd3 0f3e
000000f0: 7cdc eb3c 3e6d 20bc 49a5 f83d 4033 983d
00000100: ce57 ca3d 1d63 5b3d 243c 213e 1277 f4bc
00000110: 7a59 1d3e 992f 1b3e f88f 833d 10e0 eb3d
00000120: 990a 713d 4b59 db3d 2833 d63d 5a12 203d
00000130: 8277 043e 1823 993d 8382 da3b b94b 90bc
00000140: e2ee a53d e78c b13c 16fa 0b3e f8eb 803d
00000150: 3215 2b3e 7b8c 163e 4c69 a33c a92c 2fbb
00000160: ef9e 39bc 41f7 783c c179 ae3d a8e1 4b3c
00000170: 60cd 813d b510 e23d 6fab dd3d 2222 533d
00000180: 2984 923c 9202 da3b 8f28 df3d b0e1 87bc
00000190: bfeb 523e cb15 a93d 717c aa3c fc22 063e
000001a0: f0c1 44ba 83f6 403c 07cf 7ebd 2638 2f3b
000001b0: 0006 f13b 5b99 dc3c 197b eb3d cc8c fe3d
000001c0: a43d 003e 55cf 3aba 9e74 e6bc d050 df3c
000001d0: db69 2a3b 667e 6f3d f8e8 773d 91a0 053e
000001e0: 1eaf 993b 5bc6 a93d 3cac e33d 04b2 323d
000001f0: e0a6 983c 1860 403e a12d cf3d 4fb7 6b3d
00000200: 7949 3c3d 6a6f 27bd 6847 98bd 00b7 d53d
00000210: f5e1 e63d 6340 57ba 2a6b 6a3d b53a 94bd
00000220: 805f 183d 859e b9bc facb b83d 62d1 a43d
00000230: 05f1 333b 7ec2 5fbd 9559 c83c 680e af3c
00000240: 4a08 40bd 44c1 c33d 9323 81bd 6423 1b3d
00000250: d032 45bd 94ef 9abd 05c6 733d 7808 f8bc
00000260: 1981 ea3c bd99 a7bc f36f 643c 9f86 a43d
00000270: f9be d1bc 1bb2 58bc 2abf 95bc f9c2 b63c
00000280: 71f9 cc3d fd74 2a3d e532 58bd 7878 d9bc
00000290: c0b9 2bbd b7cf 4e3d a576 a03d 4e24 703c
000002a0: 731a 63bd 027f ba3d e8e9 9e3d 67eb 8c3d
000002b0: 666a 69bd c468 163c 92b3 2ebb fdf9 24bb
000002c0: 3289 0abd c582 d4bc 201a 9a3d fdae 9b3d
000002d0: 81f3 84bd 609d a3bc 707d cebd ed50 bd3b
000002e0: af1e bf3d 36e3 b13c 2357 c9bc 38c7 3d3d
000002f0: ee00 e8bc c109 233d 23cd d03d 0c48 e93d
00000300: 5473 b5bd 3851 1b3d 2935 b5bc 6457 2bbd
00000310: 8759 253d 6cb5 2f3d 48f1 e13d 5aa5 863a
00000320: f353 c63d 89c0 22bd 961c 0abd dbe1 73bb
00000330: d5bd b43d 894c ad3d 60db 06bd 2381 be3d
00000340: 1899 3c3c 5063 7ebd 1320 8b3d c922 34bd
00000350: b64a 65bc 5fb6 fc3c de04 443d 78c2 a93d
00000360: a227 943d f889 b03c c1b9 14bd df35 053d
00000370: 356c 2cbd 10e8 90bd 63ff 443c bdb6 b3bd
00000380: 3100 8a3d 1afd f5bc f388 fc3b e51a 89bc
00000390: 4adf 0dbe 72a0 dbbc 86d7 96bd 16c2 6b3d
000003a0: 34d4 883d 1073 a93d 12c0 08bd ada3 3a3d
000003b0: 3f75 833d 78d1 b6bc 4d61 ae3d 52cd c0bc
000003c0: 9d84 383d 7ede 70bd 1f1c 4abd 2c94 4abd
000003d0: d6a2 9ebd 8a2d fd3c b58d bd3d 2a9f 7f3c
000003e0: 14e1 13bd c7af 9f3d 5bc6 563d 2829 dcbd
000003f0: d4c5 77bd 4f10 773d 5f49 9b3c 9de7 afbd

lstm.bias_hh_l1 f4 [512]
-0.004477153 0.048981626 0.023853179 0.044521432 0.15413254 0.08481067 0.03615572 0.045102544
0.028304055 0.11487524 -0.012035376 0.0025484867 0.15109454 0.007470372 0.11686744 0.15055478
0.15366127 0.08022528 0.0063750027 0.08599668 0.019805377 0.08596078 0.018444797 0.116650365
-0.043715544 0.10932264 0.14189649 0.04708801 0.09232496 0.11651546 0.040792573 0.010202369
0.07654215 0.10073394 0.036258563 0.11886309 0.123393394 -0.018281434 0.030523697 -0.023459472
0.029389497 0.022899369 0.02475956 0.15874694 0.09283508 0.04349409 0.13035434 0.11021643
-0.001984254 -0.001858759 0.13700593 0.08261239 0.068362474 -0.059696794 0.19166973 0.041022293
0.05036152 0.030690264 0.03981561 0.088535555 0.16372587 0.1615526 0.07122954 0.08141144
0.098587245 0.06085721 0.1529111 0.022630503 0.18891002 0.011698158 0.13003285 0.0078013293
0.0855494 0.19378993 0.07405917 0.11921591 0.11582057 0.11569462 0.079142205 0.13903883
0.14944239 0.054702293 0.1268535 0.08341338 0.023914704 0.07152684 0.111177444 0.018630063
-0.014169558 0.036095805 0.121693455 0.09213431 0.008180105 0.025404671 0.026879076 0.08010736
0.15085602 0.16094045 0.10079011 0.013551574 0.093713224 0.092850536 0.053041086 0.01991715
0.11254596 0.06746562 -0.08881346 0.14269875 0.0020453301 0.05442333 -0.013827778 -0.0161531
0.01525673 0.053793207 0.029382812 -0.0019589711 0.10058711 -0.025999917 0.106109604 0.018065495
0.0864956 0.017259497 0.09049078 0.14485231 0.071450815 0.20596147 0.15840648 -0.047022194
0.010906138 0.05211349 0.016876783 0.031996943 0.0049149105 0.06447818 0.074248925 -0.010141066
-0.067707986 0.085531384 0.08136383 0.0662929 -0.028201094 -0.053332902 0.060129095 0.04297402
-0.07295369 -0.01599924 -0.04403323 -0.001667104 -0.024827842 0.027284518 -0.074523546 0.058635026
0.0694816 -0.03104551 -0.096782714 -0.06653945 -0.01021838 -0.0177188 0.084900305 0.049024116
-0.02299266 0.10500551 0.035902552 0.09473845 -0.019527605 -0.022007179 0.089421205 -0.044079293
0.020412719 -0.029984558 0.089187235 -0.080074444 0.0052863806 -0.02369807 -0.0020266878 0.053317837
-0.013722756 0.08680807 0.08992387 0.031394836 0.10662054 -0.010053701 -0.15907462 -0.057758663
0.078522034 0.03360139 -0.06155093 -0.040612184 -0.06702153 0.08708356 0.021559902 -0.028230228
0.033230036 -0.03566572 0.02009725 0.0031431387 0.06453348 0.09225453 -0.0006581321 -0.05843376
0.05071192 -0.13055103 -0.033623688 -0.043040827 -0.006236405 0.07181645 0.034658946 0.035224244
0.065415345 0.03427 0.050424192 0.0015063256 0.020380342 0.019338418 0.07186752 0.03320109
-0.07543346 -0.006942736 -0.03380276 0.027466912 -0.033841554 -0.07939322 -0.080213465 -0.019258026
-0.012238598 -0.030954765 -0.010979216 0.01279053 0.016420066 0.037651546 0.04814979 0.0028924397
-0.012810042 -0.079155594 0.081890315 0.058631215 -0.03928886 0.0017678096 -0.0036297035 0.039873857
-0.0061368234 0.06362622 0.0394007 0.032780357 -0.032890566 0.018935671 0.042374004 0.06504096
-0.029997932 0.12135621 -0.0077518853 -0.04456145 -0.010929054 0.02438021 0.043069836 -0.08460494
00000000: 15b5 92bb f5a0 483d be67 c33c 1b5c 363d
00000010: ecd4 1d3e 37b1 ad3d 0518 143d 72bd 383d
00000020: e8dd e73c b643 eb3d 0730 45bc 8304 273b
00000030: 87b8 1a3e 06ca f43b 3258 ef3d 082b 1a3e
00000040: 6159 1d3e 274d a43d 66e5 d03b 071f b03d
00000050: e33e a23c 350c b03d 8b19 973c 63e6 ee3d
00000060: 120f 33bd 8ce4 df3d 504d 113e 5bdf 403d
00000070: de14 bd3d a89f ee3d 1d16 273d d627 273c
00000080: 21c2 9c3d 994d ce3d dc83 143d 7e6e f33d
00000090: adb5 fc3d f2c2 95bc d50c fa3c 142e c0bc
000000a0: 3ec2 f03c 7597 bb3c 90d4 ca3c 8f8e 223e
000000b0: 5220 be3d dc26 323d 9c7b 053e 27b9 e13d
000000c0: 420a 02bb 9aa1 f3ba 484b 0c3e af30 a93d
000000d0: a001 8c3d a084 74bd 1245 443e fe06 283d
000000e0: e247 4e3d 266a fb3c b115 233d 2152 b53d
000000f0: c1a7 273e 0b6e 253e cbe0 913d 0bbb a63d
00000100: 1ce8 c93d 6945 793d ba94 1c3e 9b63 b93c
00000110: a171 413e a2a9 3f3c 5527 053e 4ba2 ff3b
00000120: 8634 af3d de70 463e 56ac 973d 7927 f43d
00000130: 5633 ed3d 4df1 ec3d 4f15 a23d 3260 0e3e
00000140: 6d07 193e 830f 603d e2e5 013e a2d4 aa3d
00000150: c5e8 c33c aa7c 923d 00b1 e33d 139e 983c
00000160: 6f27 68bc 32d9 133d 6b3a f93d eab0 bc3d
00000170: d905 063c 751d d03c 8231 dc3c 540f a43d
00000180: 007a 1a3e 93cd 243e 0c6b ce3d 6c07 5e3c
00000190: b8ec bf3d 6c28 be3d 9c41 593d 4a29 a33c
000001a0: 7f7e e63d 6a2b 8a3d d5e3 b5bd 9f1f 123e
000001b0: f20a 063b ffea 5e3d e88d 62bc 8253 84bc
000001c0: 5df7 793c 4456 5c3d 39b4 f03c 1562 00bb
000001d0: 9d00 ce3d c7fd d4bc fe4f d93d 17fe 933c
000001e0: 9b24 b13d ca63 8d3c 3b53 b93d 2a54 143e
000001f0: ce54 923d 90e7 523e 4f35 223e 589a 40bd
00000200: a9af 323c f474 553d 2e41 8a3c 3a0f 033d
00000210: 420d a13b 230d 843d d20f 983d b726 26bc
00000220: 7caa 8abd 142b af3d 14a2 a63d 92c4 873d
00000230: fb05 e7bc 9a73 5abd ed49 763d 8705 303d
00000240: bf68 95bd d710 83bc 305c 34bd ba82 daba
00000250: c263 cbbc c883 df3c cd9f 98bd 482b 703d
00000260: 5e4c 8e3d 2753 febc 0436 c6bd d645 88bd
00000270: fe6a 27bc 0427 91bc 36e0 ad3d 83cd 483d
00000280: 1a5b bcbc 210d d73d 8e0e 133d 3c06 c23d
00000290: 5bf8 9fbc 6648 b4bc 7722 b73d 7d8c 34bd
000002a0: 9338 a73c 2da2 f5bc cca7 b63d 12fe a3bd
000002b0: 6039 ad3b 7422 c2bc 2ed2 04bb ce63 5a3d
000002c0: 69d5 60bc 6ec8 b13d 022a b83d df97 003d
000002d0: df5b da3d 47b8 24bc 75e4 22be 5994 6cbd
000002e0: 29d0 a03d 9ca1 093d d41c 7cbd f658 26bd
000002f0: 9542 89bd de58 b23d 649e b03c 1443 e7bc
00000300: 381c 083d 3816 12bd fda2 a43c 1efd 4d3b
00000310: 212a 843d f1ef bc3d 7f86 2cba 3d58 6fbd
00000320: 4db7 4f3d 2baf 05be feb8 09bd 944b 30bd
00000330: c25a ccbb 8114 933d 8af6 0d3d 4c47 103d
00000340: 7bf8 853d b35e 0c3d 9989 4e3d e66f c53a
00000350: adf4 a63c 9a6b 9e3c 472f 933d defd 073d
00000360: dc7c 9abd e47f e3bb c374 0abd 4a02 e13c
00000370: 719d 0abd ea98 a2bd f546 a4bd 02c3 9dbc
00000380: 6784 48bc d994 fdbc 2be2 33bc 5f8f 513c
00000390: 6083 863c 8238 1a3d b738 453d 168f 3d3b
000003a0: 36e1 51bc 541c a2bd 1cb6 a73d 4927 703d
000003b0: 5bed 20bd d9b5 e73a 52e0 6dbb c552 233d
000003c0: 6817 c9bb 774e 823d a162 213d b244 063d
000003d0: 42b8 06bd fb1e 9b3c 5d90 2d3d 3234 853d
000003e0: 39be f5bc 9b89 f83d 8703 febb 1186 36bd
000003f0: c60f 33bc 02b9 c73c ff69 303d 5b45 adbd
