model_weights.pth (torch, 808652 bytes, 10 tensors)

lstm.weight_ih_l0 f4 [512, 4]
00000000: 13ff f53d 9ed7 553d 2e6b 203e 23e2 983d
00000010: 7585 2e3e a8a4 21bc 8f3b 23bd 7b66 813d
00000020: 1e0c 583d 80c0 8a3c 3033 e93d ea11 a43d
00000030: 52e7 4a3d ab09 253c 48f9 0c3e e9f9 a439
00000040: b6dd 5c3e 6063 ae3d 0940 d13d 7af2 483e
00000050: c01c d73d 775c 7db9 2426 f83d 80f7 233d
00000060: 005a 973d a2f8 fd3d cec7 813d 4940 813d
00000070: 3f75 133e 5d36 283e 295d 113e 9fc1 353e
00000080: 6896 a43a 25b8 bb3a 17ca 4e3d 2868 5fbd
00000090: 264b 1d3e 84ff 163e 5776 613e da2b 7b3e
000000a0: f291 0b3d 4c46 743d 0c1a e73d c1ce 233e
000000b0: 7818 0b3e 4707 b23c 8da0 5abb 4ae8 a23c
000000c0: 0688 133e 21f6 fa3b 9aa4 773d e58f cb3c
000000d0: 6a82 b53d 912e 2a3e d7a2 c13d 23f3 5d3e
000000e0: 860c 3c3e b4e8 a23d b582 263c 5bb5 0bbd
000000f0: 6d2c 1dbd 7c28 803c 1a1b 1d3e 826b 443d
00000100: 041b 06be 5c1e 283d 5831 0a3e 24f9 14be
00000110: 2b1a ed3d 30a1 fb3d 9f5b 433e 7a6a acba
00000120: c79e 283e 47a7 843d 8629 a23d 4e23 843d
00000130: cc13 7e3e 6fb5 af3d 865b 383e 191a e73d
00000140: 5af7 ad3d 5411 093e d40a dd3d 1c86 6d3d
00000150: 3585 53bc 9704 523b 4db4 223e b9d2 38be
00000160: 2e1d 533d 2036 cd3d 3d60 0f3e 3121 2cbe
00000170: 27f6 3f3e 6e8d b53d 1064 823c b536 f53d
00000180: 0773 463d 5ee6 453e f827 013e bec1 df3d
00000190: c703 8a3e 7510 523e 4f82 f33d 746f 623b
000001a0: fef5 833d cf10 e63d decd 0a3d 35d2 e63a
000001b0: cf47 ce3d abe7 b23d 4efb 663d 435f 12bc
000001c0: 6a14 3c3e 1850 c73d c26f 0d3e e05a 973d
000001d0: c592 0a3e 22fa 373c a407 513d ba76 183e
000001e0: 3b72 f33d f5f7 bf3d c366 113e 01b5 3b3d
000001f0: c640 293e 8620 f13d d0e9 613d 9444 443e
00000200: 955d f43d 00fb bc3c e1b8 9a3d 76f4 383d
00000210: 77cf 113e f066 263d 7960 103e 92a4 02be
00000220: 2647 0d3e 28e4 a13d 60fa d43d fee3 0d3e
00000230: 03e1 8b3d dc5e ff3d 9d35 a83d 7c09 e2bd
00000240: b3d1 a13d dd88 143e 09c9 813c 7dcd 0e3e
00000250: f971 623d c260 b53d 09a6 253e 49dd 0f3e
00000260: 82f8 193e 7273 d63d fc2f 133d 9064 bc3d
00000270: dcc4 3b3e da04 f83c 7437 0a3e aa16 a6bd
00000280: c1fb 523e 997d 233d 2eaf 003e 5585 503e
00000290: 3523 483e d6fd e93c 2656 dcbc 99df e23d
000002a0: 665d 183e d501 203e 940a 0cbb 2fa3 813d
000002b0: 9fb7 b73d 9628 de3d 8369 0f3d 102e 6ebb
000002c0: cdb1 183e 3647 e83c 9aaa 273d fd7b 0c3e
000002d0: a04d 0b3e b835 823d e117 a13d d5f7 f73d
000002e0: 6e61 693b 1b06 1b3d f673 fd3d 9983 0b3d
000002f0: e0ae cf3d ecf5 d33b af3b 85bd 559a a63d
00000300: d4b5 8b3d c9e9 ea3d 4018 9c3c f712 083c
00000310: 2678 0d3e 92ab c43d 7207 113d 024b 2d3e
00000320: 8264 7ebc dd84 c73d 3c0f 423e 59b1 0c3d
00000330: 34fa a53d 744b ad3d 89ab 353e c6df b9bb
00000340: b5f2 053c 011d 0a3d f5ab ec3d f11b 3d3d
00000350: 39a9 ce3c f135 0a3d 1107 083e 8fc5 f43d
00000360: 7a29 6d3e c971 b63d 2f81 4e3e 0ec5 b93c
00000370: 3f8b 003e afbc b43d e664 193d 781d b93d
00000380: a0b3 053e 4467 fe3d 6a8d 643d e778 ebbb
00000390: d7fd 383e 8a5e 1f3e 356f c73d a853 233e
000003a0: 4bee dc3d 2427 463d efdf 633e a926 2c3b
000003b0: 6da4 093e ecaf 593e 42b5 5c3e 1c7f b13c
000003c0: 7ef2 633d 8446 4f3d 645c bc3d 9722 073b
000003d0: b0ee 933d 756e a73d 10fe 7a3c 9044 04bd
000003e0: 2632 76bd 68ff a03c 5647 273e 2ca1 0f3c
000003f0: afde 7f3d b802 1f3e fa8d 323e 7cb1 073e
0.12011542 0.05220758 0.15665886 0.07465007 0.17043097 -0.009865917 -0.03985172 0.06318375
0.05274593 0.016937494 0.11386716 0.08011229 0.04953701 0.010073106 0.13766968 0.00031466715
0.21568951 0.08515048 0.10217292 0.19623747 0.105035305 -0.00024162406 0.1211665 0.040030956
0.07390213 0.124009386 0.06336938 0.063110895 0.14400195 0.16426988 0.14195694 0.17749642
0.0012557032 0.0014321847 0.050485697 -0.05454269 0.15360698 0.14745909 0.220178 0.24528447
0.03407473 0.059637353 0.11284265 0.15996839 0.13583553 0.021731986 -0.0033359856 0.019886155
0.14407358 0.0076587354 0.06045971 0.024848888 0.08862765 0.16619326 0.09454887 0.2167478
0.18364152 0.07954541 0.010162999 -0.0341085 -0.038372446 0.015644304 0.1534237 0.04795409
-0.13096243 0.041044578 0.13495386 -0.14548165 0.11577257 0.122866035 0.1907792 -0.0013154291
0.16466819 0.06477218 0.07918076 0.06452046 0.2481224 0.085795276 0.18003663 0.112842746
0.08494444 0.13385516 0.10793081 0.057989225 -0.012910177 0.0032046193 0.15889092 -0.18049134
0.0515415 0.10020089 0.14001556 -0.16809537 0.18746243 0.08864866 0.015916854 0.11973325
0.048449542 0.1932616 0.12612903 0.10925625 0.26956007 0.2051409 0.11890089 0.0034551295
0.06443404 0.11233675 0.033887736 0.0017610254 0.1007229 0.087355934 0.056392007 -0.008933845
0.18367162 0.097320735 0.13812163 0.0739038 0.1353255 0.01122907 0.051032677 0.1488904
0.11887022 0.09373466 0.14199357 0.045826916 0.16528615 0.117737815 0.05515462 0.19166785
0.11931912 0.023068905 0.07554794 0.04515501 0.14239298 0.040625513 0.14099301 -0.12758091
0.13796672 0.079048455 0.10399318 0.13856503 0.06830027 0.12469265 0.08213351 -0.11036965
0.07901325 0.14505334 0.015842931 0.13945575 0.055284474 0.08856346 0.16176619 0.14049257
0.15036204 0.10471238 0.035934433 0.09198868 0.18336815 0.03027575 0.13497716 -0.081097916
0.20603849 0.0399147 0.12566826 0.20363362 0.1954468 0.028563421 -0.026896548 0.11077804
0.14879379 0.15625699 -0.002136861 0.06329953 0.0897057 0.10847585 0.035012733 -0.0036343373
0.14911576 0.028354269 0.040934183 0.13719173 0.1360383 0.06357902 0.07865883 0.12107817
0.003561105 0.03784762 0.123756334 0.03406105 0.10140777 0.006468525 -0.06505524 0.08134905
0.0682179 0.11470372 0.019054532 0.008305303 0.13815364 0.09603037 0.03540749 0.16923144
-0.015526893 0.097421385 0.18951124 0.03434882 0.08104363 0.08461657 0.17741217 -0.005672428
0.008175542 0.033719067 0.11556236 0.046169225 0.025227176 0.03374285 0.13283946 0.11951744
0.23160353 0.089084215 0.20166467 0.02267697 0.12553118 0.08825051 0.03744974 0.09038824
0.13056803 0.1242204 0.055798925 -0.0071860435 0.18065582 0.15563408 0.09738008 0.15949881
0.10787638 0.04837717 0.22253393 0.002626816 0.1344163 0.21258515 0.2155352 0.021667056
0.05565118 0.05060436 0.091973096 0.0020619982 0.072232604 0.08175365 0.015319362 -0.03229195
-0.06010642 0.019653037 0.16335806 0.008766454 0.062468227 0.15528381 0.17436972 0.13251299

lstm.weight_hh_l0 f4 [512, 128]
00000000: 95f8 673d 7e1c 04bd f1f6 543c d69d ab3d
00000010: 4262 8c3d b0c2 143d e416 98bd 64fe a83d
00000020: d4f6 893d 04a4 0a3d 7854 86bb 87b0 e0bc
00000030: 43ea b0bc b6a6 843b 3236 cfbc 7000 46bd
00000040: edc7 043d 904b 653d 90a1 1fbd 08e3 a7bc
00000050: e59e 1c3d d598 85bc cdd2 98bc 1969 373d
00000060: a06b d5bd 7914 3abd 570d c6bd 3de2 34bd
00000070: 824d 53bd 364d b03b 8983 23bd cf1b 82bd
00000080: aff4 55bd 140d 8f3d a1bd 48bc fcc7 1d3d
00000090: 8dff d0bc 87fc 183c cd46 86bd 0018 be3d
000000a0: f254 783d febb 3a3d c252 afbc 14c6 bc3c
000000b0: 2f75 95bd 9a7c f33c 3ea8 80bd 1b72 91bd
000000c0: 7edb 473d a19d 943d f3ce b03d 26c6 1c3c
000000d0: f50f bebb a49e 74bd 4e0b 4fbd 7198 933d
000000e0: 0e66 aa3d aecb a7bc 6ef1 1bbd b6f1 873d
000000f0: 246a 8abd fde6 8bbd ba9f af3b 28d7 8d3d
00000100: 03b3 f0bc 6a05 273d cce0 843d c4ca fa3c
00000110: 80dd 1bbd b741 3fbb 89b7 833d ec25 583d
00000120: c811 1abd 7798 9bbd 3c9d 3c3d cc7c 5cbd
00000130: 04a4 33bd 1e59 43bd 751d 613d b0d9 dbbb
00000140: 5cdb f9bc 1108 533d 0bbf 363d b4c6 eabc
00000150: e66d 693d 4ba3 923d 4b80 9b3d 1d33 e9bc
00000160: 5d04 f83c 7a55 aa3d a5c3 adbb d150 2bbd
00000170: f7e2 423b 6b49 babc 08e0 923d 7d08 3c3d
00000180: a901 6f3d 23d1 98bd f060 a9bd 19b2 aabd
00000190: 0dc7 88bd ce85 af3d 328b 78bd 5f37 7a3a
000001a0: 44ef 90bd 4a4b 33bd f3a5 703d 85c3 82bd
000001b0: 4601 1fbd 0c93 07bd 5adb 183d 8919 bfbc
000001c0: 29c6 89bc 7fd3 5f3c 3903 1b3d 51c9 003d
000001d0: 5e4b 943d 8001 a23c 5217 bebd 0d91 bebc
000001e0: 6284 38bd b29f 553d 5892 83bd 47a9 6b3d
000001f0: 0116 473d fd31 93bb e002 81bd 1a7f a5bd
00000200: 5a6d b2bc 5b5c 843d d6cb 0d3d db83 843d
00000210: eb89 73bc 4eba 823d 0329 d4bd f0a1 41bd
00000220: 6be9 1cbd e2d8 bbbc 5660 64bd 7f58 c33c
00000230: 733a 323d 8abd bb3d a171 9a3d b92c 3b3d
00000240: f6e2 28bc 16db ad3d 0e8d b6bd 105b c9bb
00000250: 11f4 6abd 3a1a 943d ef78 d2bc 9104 16bd
00000260: 04c2 e8bd 0534 c1bd 053d c13c 6324 c9bd
00000270: 1987 2abd 95a2 a4bc 6e2a 6c3d ddfb b23d
00000280: 6c2f b2bd ccb0 8c3d 7664 92bc 57d6 b2bd
00000290: 37fb e0bd ebf9 9f3c 202e 7c3d b407 8b3c
000002a0: f272 99bd 959a 2c3d 3502 72bd 1bf8 aebd
000002b0: 959c c1bc fd97 70bd 1f4b 14bd adc1 45bd
000002c0: a57c 9fbc d8d7 7abc 61ff 673d 7b53 9a39
000002d0: 25c0 2e3d 4a3e 37bd e04b 90bd f762 b53d
000002e0: 8c1b 18bb 7876 f23d d8fa 5c3d c2f1 4a39
000002f0: 4a01 babd 649e 8abb c38f 063d e77d b13c
00000300: 4490 13bd 62d2 9f3d 6b8f 7ebd d8ca 033d
00000310: 50e9 f33b fef1 77bd 8892 58bd d3cf 1dbd
00000320: eb82 18bd 42ac 5a3d ce3b 20bb 5544 b9bd
00000330: 50f0 053d 439f 7d3d 705e 1abd cdb6 ddbc
00000340: 8c5b 443d 0560 013d cc3c a73c b3e9 daba
00000350: 0e17 39bc 961b 60bc 8d33 8f3c 93f5 8e3d
00000360: 8afc 483d d87f e8bd 4dd2 4a3d b421 963c
00000370: c290 a8bd acf4 46bd 4fe4 03bd 57ba a739
00000380: 2410 d83d 4451 cabd 1a5f 483d ea50 133c
00000390: 4ddb 1abc 3611 573d a26a 953d 4ff1 9bbb
000003a0: 3c5a 1bbd d468 e4ba 0830 a9bd 8638 c9bb
000003b0: f2c1 bcbd 4cee 2f3c 79c2 0d3d 66e9 87bb
000003c0: dc8b 99bd 3fe7 0dbd d81a cf3d 6e86 a1bd
000003d0: 93ce 6bbd 900b 333d cf00 563d bfe0 84bd
000003e0: f681 75bd 66bb 473d 1435 a2bd c889 24bd
000003f0: 18e2 89bd 8b04 df3c 6d3d 613d b3a4 3cbd
0.05663355 -0.032253735 0.012998329 0.08379714 0.06854679 0.03631848 -0.07426241 0.08251646
0.06736532 0.033847824 -0.004099425 -0.027427925 -0.02159608 0.004048194 -0.025294397 -0.04834026
0.032417227 0.055980265 -0.038972437 -0.020494 0.03823747 -0.016308228 -0.018655205 0.044777963
-0.104209185 -0.04542968 -0.09670513 -0.04416107 -0.05158759 0.005380298 -0.039920364 -0.0635296
-0.0522353 0.06984916 -0.012252242 0.038520798 -0.025512481 0.009337551 -0.06556473 0.092819214
0.060627885 0.04558944 -0.021401767 0.02304367 -0.072977416 0.0297225 -0.0628209 -0.07101842
0.04879331 0.07256628 0.086332224 0.009568727 -0.005800242 -0.059721604 -0.05054789 0.0720681
0.08320247 -0.020482864 -0.038072042 0.066378996 -0.06758526 -0.06831167 0.005359617 0.069258034
-0.029382234 0.040776648 0.06488189 0.030614264 -0.038053036 -0.0029183456 0.06431491 0.05277054
-0.037614614 -0.0759744 0.046048388 -0.053829953 -0.04385759 -0.04769241 0.054959733 -0.0067093
-0.030500107 0.051521365 0.044615787 -0.028659202 0.056989573 0.07160052 0.07592829 -0.028466756
0.030275518 0.083170846 -0.0053028637 -0.04182512 0.0029737332 -0.022740087 0.07171637 0.045906533
0.058351193 -0.07461765 -0.082704425 -0.08334751 -0.06678591 0.08570443 -0.060679622 0.0009544994
-0.07076886 -0.043772973 0.05875201 -0.06384949 -0.038819574 -0.03309922 0.037318565 -0.023327606
-0.016818123 0.013661264 0.03784487 0.03144199 0.07240938 0.019776106 -0.09281792 -0.023262525
-0.045048125 0.05215425 -0.06424397 0.057534482 0.04860497 -0.004492043 -0.062993765 -0.08080883
-0.021780659 0.06462928 0.03461822 0.06470462 -0.014864425 0.06383191 -0.10359385 -0.047273576
-0.038308542 -0.022930566 -0.055755936 0.02384591 0.043512773 0.09167011 0.07541204 0.045696948
-0.010308018 0.08489053 -0.08913623 -0.0061448887 -0.057361666 0.07231565 -0.025692431 -0.03662545
-0.113651305 -0.0943375 0.023588667 -0.09821393 -0.041632745 -0.020097056 0.05765765 0.08739445
-0.08700451 0.06869659 -0.01787017 -0.08732288 -0.109854154 0.01952835 0.061567426 0.016971447
-0.07492627 0.04213961 -0.059084136 -0.08543416 -0.023634234 -0.058738697 -0.036204454 -0.048280407
-0.019468615 -0.01531025 0.056640033 0.00029435367 0.042663712 -0.044737138 -0.07045722 0.08856767
-0.0023209779 0.11839002 0.05395016 0.00019354283 -0.09082277 -0.0042303074 0.032851946 0.02166648
-0.036026254 0.07803799 -0.062148493 0.03217587 0.0074435845 -0.060533516 -0.052874118 -0.038528275
-0.037234228 0.053386934 -0.002444971 -0.090462364 0.032699883 0.061919462 -0.03768772 -0.027064705
0.04793887 0.031585712 0.020414732 -0.0016701728 -0.011297001 -0.013678452 0.017480636 0.06980433
0.049068965 -0.11352509 0.049516965 0.018326618 -0.08230735 -0.04857318 -0.032200154 0.00031991556
0.105499536 -0.098787814 0.04891882 0.008991459 -0.009451699 0.052506648 0.07295729 -0.004758991
-0.03792785 -0.0017426261 -0.08261114 -0.0061407713 -0.0921668 0.010737967 0.03460929 -0.0041476963
-0.07497379 -0.03464436 0.10112542 -0.078869686 -0.05757005 0.0437122 0.052246865 -0.064881794
-0.059938394 0.0487627 -0.0792028 -0.04017046 -0.06732577 0.027223846 0.05499022 -0.046055507

lstm.bias_ih_l0 f4 [512]
00000000: f001 423d be14 5b3c 7316 973c 86d7 c73c
00000010: 7afc f23d a040 123e 4101 1d3e dd19 e23d
00000020: 988c 5a3d 1ef3 533d 5fa2 9f3d c4cb bd3d
00000030: 053a d03c b4c5 003e df55 193e a5fa ed3d
00000040: f4fa 613d b8f2 4c3e d1fb c33d e991 e23d
00000050: 5600 893d fcde 093e 9bea 013e 509b 033e
00000060: f107 e13d 4870 953d 22a9 ea3d 4611 bd3d
00000070: e1d6 043e 0d68 4cbc 1bb0 bd3c b327 993d
00000080: d07e 2d39 6465 003e 3ed8 493c ae49 273d
00000090: 9f82 4b3e 5c1f 0b3e 396c 3d3d 8a37 3c3e
000000a0: a451 ad3d 7bdc f63d c912 04bb 526e c13c
000000b0: 6773 643d 1fac 093e 15ea 0e3e d0c1 c23b
000000c0: 6517 1a3e bb0b 613d 966e 333e 145f 3b3d
000000d0: 9ed2 df3d 5288 0b3e 5a38 cf3d 1b7e 153e
000000e0: 19a7 9f3d 21f9 643e 6c18 683e 5447 df3d
000000f0: 155d b6bb bc20 e33d e7f3 a9bb c912 503d
00000100: 8826 0d3e e884 8c3d 8704 2a3e 6afa d63d
00000110: abfa da3d 9004 843d 32d3 583d e712 35bb
00000120: 515b 673c fb59 143e a13a 753e 060a c13b
00000130: a94c 923d ad09 783d 937d 1f3e 764e 283d
00000140: f8f0 003e 0886 953d 1c84 c33b c818 573c
00000150: aa95 0e3e f620 283e 40ed e33d 040c 283e
00000160: c25e 293e 3357 e33d 6525 083c 5736 193d
00000170: 8aa5 553e 12ec 253d 94a5 0a3e 3603 f83c
00000180: 297a 133c 94b8 683c bf27 a33a 2fe7 203e
00000190: 8e88 1f3e 8cd0 cf3d b8c5 b93b f758 333e
000001a0: a93a 0c3e f4fa b23d 171c d73d ac15 0e3e
000001b0: ea40 ec3d da06 6cb9 1e6c abbc 87e9 223d
000001c0: 0dec 653d 48bf cc3d 6998 883d 56e8 333d
000001d0: b6bf 1f3e cd2f 453d 1dd4 fc3d a60c a93b
000001e0: 5094 26bc 69df b83d 0aa0 cd3d 14be cf3d
000001f0: 9349 ce3c ebf5 343d cc4f 1f3e fae0 e73d
00000200: 67f1 523c 1c3d eabc e979 27bc 388a 38bd
00000210: 0eae 3fbd 8854 1b3d c21f 363d 95cc 013d
00000220: a9b7 c53d 2a01 e63d a082 9b3d c1f0 a43d
00000230: 98d9 ee3c ea52 893d 50fd 1d3d 4567 463d
00000240: 54a0 343c 86a0 22bd c640 90bd 6f5f 8c3d
00000250: e854 833d 8e80 c63c 7fc8 21bd 1547 8abb
00000260: 0152 0d3d fd60 a5bc 9ef3 593d 4a7e 693d
00000270: 9654 a9bd d139 b33c 1488 a4bb b070 b13d
00000280: 77e1 febb f28a 233d b45a 973d 02bd 82bd
00000290: cd9d ba3d b3ce 943c bcbe 07bd e5cf 14bc
000002a0: dd56 993d 54f5 a5bd 8437 62bb fb73 05bd
000002b0: 27a8 853d bd7f 6cbd d47e 58bd 0131 54bd
000002c0: 5388 b03d 87d0 873d 53fa 6dbd 64e6 443d
000002d0: ddeb b7bc ccb6 3bbd 7f50 6c3d a567 2ebd
000002e0: 69ae a4bd 94a5 31bd 5063 3fbd 80f3 a4bd
000002f0: 5134 29bd 674b 8d3d d4b5 253d 111f 893d
00000300: acf4 00bd bdb2 9a3d 3fe3 7ebd 27a4 863d
00000310: 0f10 91bd a901 d63c d6d7 f33d 09bb c63d
00000320: 2442 8c3d abb4 c33c 568d bf3a fd23 5dbd
00000330: 93b0 e0bc 50f0 5abd bd4e c33c ebc4 6abb
00000340: e799 49bd 5506 863d 5c49 163d 4434 8d3d
00000350: 743e bc3c 9007 393d 2e3b 873d 61d9 50bd
00000360: 46f5 e33b 6ec6 0f3c 3794 ef3c 9771 f43d
00000370: af92 ca3c ceab 0e3d 9b1f ad3b 691e eebc
00000380: 3b21 0cbd 5a00 983d 9a1a 243d 5b1f 0fbd
00000390: ee63 ce3d b2bd 76bc c531 31bd a0ae a03a
000003a0: eb4b 3b3d c18d b53d 6c56 463d 1c36 6a3c
000003b0: b2c7 823d afdf 8f3d 07fe 5cbb 8f0e a23c
000003c0: 90cb 993c ccda adbd 8eb2 33bc 5547 e43c
000003d0: de3e 3d3d 4c46 853d f232 4c3d ca63 723d
000003e0: 95a0 f73c 0277 5b3d f5f4 4b3d 78ef ffbc
000003f0: 457b e9bb 56e8 113c 078f febc 7893 41bd
0.04736513 0.013371645 0.018443322 0.024394762 0.11864562 0.14282465 0.1533251 0.11040089
0.053356737 0.051745526 0.07794642 0.09267381 0.02541829 0.12575418 0.14974163 0.11620072
0.05517097 0.20014465 0.095695145 0.110629864 0.06689517 0.13463968 0.12687151 0.12852216
0.10987843 0.072968066 0.11458041 0.0923181 0.12972595 -0.0124759795 0.023155263 0.07478275
0.00016545807 0.12538677 0.012319623 0.04084175 0.19874047 0.13586181 0.046245787 0.18380561
0.08462837 0.12053772 -0.0020152798 0.023612175 0.05577412 0.13444565 0.13956483 0.0059435144
0.15047987 0.054942828 0.17522654 0.04574497 0.10928844 0.13626221 0.1011817 0.14598887
0.07795543 0.2236066 0.22665566 0.10902277 -0.0055652955 0.11090228 -0.005186546 0.050799165
0.1378423 0.06861287 0.1660329 0.104969814 0.10692342 0.06446183 0.052935787 -0.0027629675
0.014120893 0.1448745 0.23948146 0.0058910875 0.07143528 0.060556103 0.15575247 0.04109045
0.12591922 0.07300955 0.0059666764 0.013128467 0.1392428 0.16418824 0.11129236 0.16410834
0.16540053 0.11100616 0.008309697 0.03740534 0.2086393 0.040508337 0.13539726 0.030274969
0.009001293 0.014204163 0.0012447758 0.1571319 0.15579435 0.10147199 0.005669322 0.17514406
0.13694252 0.08739272 0.105034046 0.13875455 0.11535819 -0.00022509266 -0.020925578 0.03977349
0.05613332 0.099974215 0.06669695 0.043922745 0.15600476 0.04814129 0.12345145 0.0051589785
-0.010167196 0.09026987 0.10040291 0.101436764 0.025181567 0.04417984 0.15557784 0.11322208
0.012874938 -0.028593592 -0.010221937 -0.04505369 -0.04679685 0.037922412 0.04446388 0.031689245
0.09654171 0.11230691 0.07593274 0.08053733 0.029156491 0.06705268 0.038571656 0.04843833
0.011024553 -0.03970387 -0.070436046 0.0685414 0.06412679 0.024231222 -0.03949785 -0.0042198994
0.034502033 -0.02018785 0.053210847 0.057005204 -0.082680866 0.021878155 -0.0050211046 0.086640716
-0.0077783423 0.03992743 0.07390347 -0.06383707 0.09112129 0.018164968 -0.033140883 -0.009082769
0.07487271 -0.08103433 -0.0034517953 -0.03258131 0.06526213 -0.05773901 -0.052855328 -0.051804546
0.08619752 0.0663157 -0.058100056 0.04807128 -0.022451336 -0.045828626 0.057693955 -0.042579312
-0.080410786 -0.0433708 -0.04672557 -0.080542564 -0.04130966 0.068991475 0.040456608 0.066953786
-0.031483337 0.07553623 -0.062228438 0.06574278 -0.07083141 0.026123838 0.11906402 0.09703643
0.06848553 0.02388986 0.0014614265 -0.0539894 -0.027427947 -0.053451836 0.023841256 -0.0035822939
-0.04921904 0.065441765 0.036691055 0.068947345 0.022978999 0.045173228 0.066030845 -0.05098856
0.006956729 0.008775337 0.029245479 0.11935728 0.024728147 0.034831814 0.0052833087 -0.029067235
-0.03421138 0.07421942 0.04006443 -0.034942012 0.10077654 -0.015059875 -0.043260355 0.0012259074
0.045726698 0.08864928 0.048422262 0.014295127 0.06385745 0.07025086 -0.0033720748 0.019782333
0.018773824 -0.08488998 -0.010967864 0.027866045 0.046202533 0.06507549 0.049853273 0.059177198
0.030227939 0.05358029 0.049794156 -0.031242117 -0.0071252906 0.008905491 -0.03107406 -0.047259778

lstm.bias_hh_l0 f4 [512]
00000000: 6db4 b1ba 87da 0f3e fc41 1e3d b740 cd3d
00000010: 7353 183e 4945 cd3d 312b 2b3e 4ca1 aa3d
00000020: aa1c 9d3d 2bcd 583d 39da 1b3e e9d0 a93d
00000030: 65d5 ae3d d8fd 1a3d a63a bb3d ff23 8abb
00000040: db46 9b3d 7d7a 143e 526a 413d 5038 043e
00000050: 41db dd3c d950 123e 84ec db3d 93a7 633d
00000060: 4148 073e 78a6 5b3e c611 863d 6dc5 be3c
00000070: 48dc 5b3e 667f f83d 658a c0bc 6b71 45bc
00000080: 3544 b73d 4efe a83d 868e 023e 7f26 9d3b
00000090: 3d3a 323e 56a2 ba3b d03f d73c b407 d23d
000000a0: 8904 ea3c d27d 493d e3c3 a2bc 3bee 4d3c
000000b0: 1cad f63d 39ab 013d 8357 ec3d d147 c73d
000000c0: 610a 473d 9f8a 9a3d 103a 923d 868d 153e
000000d0: 704c f43c 738f 973d fb17 373e 0dab b53d
000000e0: 5daf 053e c6f2 3d3e 074e 213e ee22 e13d
000000f0: 34e7 043d c8cd b43d 874d a3bc 6b9f 2f3e
00000100: e9fa bb3d d2e4 463c 1951 063e d1a9 843d
00000110: 705e a9bc a3d7 f23c 2090 083e 8e4b c73c
00000120: 3d20 243d b477 0bbc 4173 823e 2ab4 813d
00000130: 1d8b 9a3d 370b ea3d 70f4 6e3e d53c 943d
00000140: b637 20bc a8d4 8d3d 10d3 493d 8c1a 0f3d
00000150: 8cdb ce3d 4111 533d 2268 a63d 555f 0bbc
00000160: 93d9 f93d 9966 9a3d 41f7 0f3e 483f 423d
00000170: 8256 993d 0d32 4b3d df8f 963d 97e6 163e
00000180: 4902 47bc d6f7 9ebc 03a6 d73b 328b 503d
00000190: 6d63 353d 6b3c cebc 34f4 7a3c 5d37 233d
000001a0: a2d3 b33d 11e2 6a3d f457 173e f46e e33d
000001b0: 0502 8f3d aef2 9f3d c97f a0bb bd1a 113d
000001c0: 7415 1e3d d4f3 9ebc 0ff4 893d 5868 e03d
000001d0: 4948 4f3d 6df2 823d a95d 993d 7f99 6e3c
000001e0: 652a 153e 4c51 373e 453d 073d 2971 f43d
000001f0: 5ec5 3b3d 16b4 cb3d 4fda 033e d31a 813d
00000200: bc03 7c3d 5197 763d 50d6 633d 8ffe b83d
00000210: e8c2 353d d911 25bd 6a1d 75bd 87f1 37bd
00000220: b104 71bd 5384 a1bc 96b3 853d 8e6a 663d
00000230: 645d ba3c 5977 8e3d b565 b93c a746 363d
00000240: 1cb6 6e3c e184 af3d 871e 81bb 9430 00bc
00000250: 6598 5ebd a2a8 bdbc 29b0 76bd a9b4 2abd
00000260: 7a54 2abd eff8 503d cc14 4abd 3d92 92bd
00000270: a7a1 46bc b560 81bd 175a 81bc 9e9d 57bc
00000280: ec51 36bd dc21 a1bc 88e5 c73c eee3 31bd
00000290: 69f5 a23d 74f1 523d ae40 ca3d dfcf b1bd
000002a0: c8d2 483d 73ff 053d 18cb 9f3c 4717 97bc
000002b0: bba5 963d 6cbc be3d adc6 c3bc a435 a53d
000002c0: 57ca 8c3d 7723 5c3d f0b6 aabb 7b4b f43c
000002d0: db03 ae3d abaf 5b3d 27e0 463c 2cf0 9ebd
000002e0: 282b 1e39 b673 58bd 21fc ebbc 7c08 32bc
000002f0: 86fe 40bc 4bbe 24bd 53c4 51bc d2c3 43bd
00000300: 726a b13c 2592 af3d ee31 b8bc ef7a 603d
00000310: b41b 373d 1ec7 74bd fbd6 0b3e c977 b13d
00000320: ecd7 6b3d 4f35 ac3c 86d8 503d 182a c53d
00000330: 1fc6 c33d d612 3cbd 83c2 06bd 4da5 21bc
00000340: 04e9 1d3c 528d 163b 46ff e03c e2ea 6dbd
00000350: 4f86 7a3c 28e5 89bd 8698 ae3d 1428 8b3d
00000360: 1ba6 613c d0ea 99bd 6716 753d 399a 1e3e
00000370: 4590 86bd 4d60 ba3d a914 67bd 1c70 29bd
00000380: 999c 21bd 6b2c 21bd 963b 823d 3b55 37bd
00000390: 860e 873d 88f1 9a3d cdb3 6e3d 9d5a 20bd
000003a0: 140d adbb f399 b13d a613 793d 808b 7e3c
000003b0: 03a5 0abd e66a ae3c 3a3f 1d3d 9e61 9f3d
000003c0: 2a41 b43d 97f9 8e3c 1b7d 893b 6733 1e3c
000003d0: d23b 5bbd a1ae b2bc 08b5 ce3b 3673 69bd
000003e0: 11f4 87bd fe5f aa3d 8c24 063d e13c d9bc
000003f0: a717 1dbd 97f5 a53d df62 91bd 9d2f e63d
-0.0013557799 0.14048205 0.038637146 0.10022109 0.14875583 0.10022981 0.16715695 0.08331546
0.07671483 0.05293004 0.15219964 0.082917996 0.085367955 0.03783974 0.09142046 -0.004215717
0.07581874 0.1449985 0.047220536 0.12912107 0.027082087 0.14288653 0.10738471 0.055579733
0.13211156 0.21450222 0.06546359 0.0232875 0.2147075 0.12133674 -0.023503492 -0.012050967
0.08948556 0.0825163 0.12749681 0.004795849 0.17405029 0.0056956215 0.026275545 0.102553755
0.028566616 0.049192257 -0.019868797 0.012569006 0.12044737 0.03165743 0.11540129 0.09730495
0.048593882 0.07545971 0.07139981 0.14604768 0.029821604 0.07400408 0.17880242 0.08870516
0.13055177 0.18549642 0.15752421 0.109929904 0.032447055 0.08828312 -0.019934429 0.17150657
0.09178717 0.012139516 0.13116874 0.064777024 -0.020674914 0.02964384 0.1333623 0.02432802
0.040069807 -0.008512426 0.25478557 0.06333192 0.07546065 0.1142792 0.23335433 0.07238165
-0.0097789075 0.069253266 0.04927355 0.034937426 0.10100469 0.051530126 0.081253305 -0.008506616
0.12199702 0.075391 0.14059164 0.04742363 0.07487203 0.04960828 0.0735166 0.147364
-0.012146541 -0.019405287 0.0065810694 0.050913997 0.044284273 -0.025175294 0.015317012 0.03984772
0.087806 0.0573445 0.14779645 0.11105147 0.06982807 0.07809959 -0.0048980457 0.03542589
0.038594678 -0.019403376 0.067360036 0.10957402 0.050606046 0.06393895 0.074885674 0.0145629635
0.14566953 0.17902106 0.033017416 0.11935646 0.04584252 0.09946458 0.12876247 0.063039444
0.061527 0.0602029 0.055624306 0.09032928 0.04437533 -0.040300224 -0.059842505 -0.044908073
-0.058842365 -0.019716417 0.06528394 0.056253962 0.02274961 0.069563575 0.022631506 0.044500973
0.014569785 0.085702665 -0.0039404067 -0.007824082 -0.054344554 -0.0231517 -0.060226593 -0.041676197
-0.04158447 0.05101865 -0.04933624 -0.07156799 -0.012123502 -0.063172735 -0.015790028 -0.013160137
-0.04451172 -0.019669466 0.024401441 -0.04343026 0.079569645 0.0514998 0.09875618 -0.086822264
0.04902914 0.03271432 0.019506022 -0.018443717 0.07355829 0.09313282 -0.023898447 0.08066872
0.06874531 0.05374476 -0.005209796 0.029821148 0.08496829 0.053634327 0.012138403 -0.07760653
0.00015084131 -0.052844726 -0.028806748 -0.010866281 -0.011779433 -0.04022054 -0.012803155 -0.04779417
0.021657202 0.08572797 -0.022484746 0.05480474 0.044704154 -0.059760205 0.13656227 0.08665425
0.057578966 0.021021513 0.050987743 0.09627169 0.09559273 -0.0459164 -0.032900345 -0.009866071
0.009638075 0.0022972417 0.027465474 -0.05808533 0.015290811 -0.06733161 0.08525185 0.06794754
0.013772513 -0.0751549 0.059835818 0.15488519 -0.06570486 0.09100399 -0.056416187 -0.04136668
-0.039455984 -0.039349 0.06359021 -0.044759016 0.06594567 0.075656 0.05827694 -0.039148916
-0.0052811 0.086719416 0.060809754 0.015536189 -0.033848774 0.021291208 0.038390376 0.07782291
0.088014916 0.017452998 0.004195822 0.00965581 -0.053523846 -0.021811785 0.0063082017 -0.05699464
-0.06638349 0.0831909 0.032749698 -0.026518287 -0.038352635 0.08103483 -0.07098936 0.1123955

lstm.weight_ih_l1 f4 [512, 128]
00000000: 3c5d cdbc b54d c4bd a6cb 64bc c044 b7bb
00000010: ee8e 723b b1b8 1ebd e331 92bc 860e d7ba
00000020: 20eb 983d a1f0 5b3d 0182 37bd af27 b93d
00000030: e13f d7bd 94ac a83d 4784 463b 0d6f 4a3d
00000040: 1612 bfbc 8cfe 3a3b c30f 213d 8ea0 053d
00000050: b965 a93d e8d3 243d d9c5 e73b b7b9 9bbb
00000060: edc9 eb3c e30d 9c3d 490a bf3c 7210 d3bd
00000070: df27 863c b5c2 d5bc 90fc c8bc 5202 003d
00000080: baba 1ebd bd18 893d a78e c83d 12b3 9abd
00000090: 9d3f 2bbb 493e 86bd e470 afbc d511 4f3c
000000a0: 493c 8a3d 4730 58bd e5c9 babd 14d8 96bc
000000b0: 41d1 803d d7b2 143d 8703 ac3d 9763 88bd
000000c0: 2c74 5d3d bde3 7ebd b33c 2e3e c4d5 6dbb
000000d0: e227 863c 8e3f a63d 72e2 92bd 26b9 15bd
000000e0: f037 b4bb e1fa 4abe fda3 4e3c fe0e 92bb
000000f0: 8409 acba 68f6 aabd 4f64 87bd 3bd9 3fbd
00000100: f44d db3a 2950 95bd 8bcc eb3c cd07 6bbc
00000110: a473 02bd e5c1 a3bd 25e2 d13d ec78 6abd
00000120: 6fa2 053c 8837 7b3d c908 363c dd08 c23d
00000130: 093f f73c 6754 ecbc 97ab 26be 888a 8fbc
00000140: 55a6 11bd c9f3 55bd 1e50 c5bb 3c30 2fbd
00000150: c772 8cbd c174 38bd f741 b73d 7af3 76bd
00000160: a64f 403d 653b 23bd 4171 a13c 161a 92bd
00000170: dd14 e53d 9951 f9bd 45eb 83bb 2bab 4dbc
00000180: d586 2e3c 5527 9a3d 3b83 883d deee 20bd
00000190: 0fd9 49bd 6aa2 9b3d 5ce5 553d 232e a13d
000001a0: fdb4 e3bc 6475 9739 645e 50bc 2330 63bc
000001b0: b451 f6bb 19a3 063d 0759 2fbc 2fb1 41bc
000001c0: def6 923c 06d7 3fbd 01af c53c 8af8 86bd
000001d0: e4b1 adbb ebc2 27bd 3fde 193d e0be 4b3d
000001e0: cfa8 89bd 45c8 1dbd 3d6f e6bc 54ed 5abd
000001f0: ff3b 243d 551e bdbd b896 60bb d4d6 6e3d
00000200: dc23 133e 4611 223e ddc3 3e3c 28ed 4dbd
00000210: 1720 233e f8f2 4ebd 6c5c 9ebd 0b07 4fbe
00000220: 7594 6d3d 379c 883d 690e a6bd 86af 5d3d
00000230: 329e 92bb b6f6 2e3e 5817 373e 2f4e 0ebd
00000240: 1ca0 7a3d 5a97 d23d 6ff5 fcbb 67f2 adbd
00000250: e1b1 883d 3ce5 d03d 8565 1cbe 9da2 483d
00000260: ed8c f7bc d280 983d 41de a5bd 6705 67bd
00000270: d009 193e e9ea 6bbc 4970 103e 3951 963d
00000280: 31ec 8fbd f874 083e f03e c43d f324 b2bc
00000290: 2923 5fbe f218 a7bd c592 173e 929c 49be
000002a0: af50 c2bd ca8e 93bd 982c 04be c2b7 98bd
000002b0: 1df5 213e 0ac4 82bd 461d 03bd 81c2 963b
000002c0: d7bc 133d b09a ba3d 2f27 fe3d b7ee 3fbe
000002d0: cce3 c53d 6c95 13be 36b7 bcbd 8897 593d
000002e0: 6318 1dbe d97c c0bd 382b 7b3e 40f2 16be
000002f0: 7057 04be 7319 17be 2462 b23d feb9 f6bc
00000300: 9ec2 f4bd aad7 5a3d c58f 2b3e cf34 05bd
00000310: 06cd a23d 6394 00bd d7b2 ed3b 840d aa3c
00000320: 60e7 cd3d a047 0f3c e536 4b3e c998 63bd
00000330: e1b3 8e3d aa62 283e 9e52 00be 67f1 153e
00000340: 81cc a73d 32cb ddbd 660d d93d 2be3 ea3b
00000350: 1f15 243e 97f2 d03d 60f6 bbbd 3bab afbc
00000360: 6eb3 6d3d 8c8b 1bbd 9a17 153d 0fc2 65bd
00000370: cc09 2f3e 56b5 7dbd fe9e be3d 6464 4a3e
00000380: 09ad cb3d 0653 88bd f40f 9fbd faf4 0e3e
00000390: b966 143d 67fa fc3d a475 a43d 95b5 3c3d
000003a0: de02 043e 7f7a 96bd 3354 2ebe b140 1fbd
000003b0: c7db 2ebe a617 ee3c a3a1 c2bc e6d6 29be
000003c0: 7839 13be e2f7 9d3d 7f31 2c3d d162 0aba
000003d0: 33bf aebd 4b5d 9f3d fe81 b9bd 16c2 8cbd
000003e0: afab 0cbe 7c38 493e dad1 30bd 8778 88bd
000003f0: 1e3a 1cbc 431c a73d a055 f8bd 3542 913d
-0.025068872 -0.09585134 -0.013964569 -0.0055929124 0.0037011462 -0.038750354 -0.017846053 -0.0016407527
0.074667215 0.05369628 -0.044801716 0.09040772 -0.10510231 0.08236042 0.0030291246 0.049422313
-0.023324054 0.002853307 0.039321672 0.03262382 0.08271355 0.040241152 0.007073146 -0.0047523635
0.02878281 0.07619836 0.023320334 -0.10305871 0.016376434 -0.02609382 -0.024534494 0.031252213
-0.038752295 0.066941716 0.09792834 -0.07553686 -0.0026130446 -0.06554849 -0.021416135 0.012638529
0.0674978 -0.052780416 -0.091205396 -0.018413581 0.06289912 0.036303367 0.0839911 -0.0665962
0.05406587 -0.062228907 0.17015342 -0.0036290744 0.01637644 0.08117591 -0.07172097 -0.036553524
-0.0054998323 -0.19822265 0.01261234 -0.0044573536 -0.0013125394 -0.083477795 -0.06610929 -0.046838026
0.0016731606 -0.0729068 0.028784057 -0.014345122 -0.031848565 -0.07995967 0.10248212 -0.057244226
0.008156403 0.061332256 0.011110493 0.09474347 0.030181425 -0.02884884 -0.16276394 -0.017522112
-0.035559017 -0.052234445 -0.0060215136 -0.04277061 -0.068578295 -0.04503322 0.08948129 -0.06029079
0.04695096 -0.039851565 0.019707324 -0.07133882 0.1118562 -0.12173767 -0.004025849 -0.012553017
0.010652264 0.07527033 0.06665655 -0.0392903 -0.04927927 0.075993374 0.052220687 0.07870128
-0.027796263 0.00028888427 -0.012717817 -0.013866457 -0.007517064 0.032870386 -0.010702378 -0.011822029
0.017939981 -0.04683592 0.0241313 -0.06590374 -0.005300747 -0.040957373 0.037565466 0.04974258
-0.06721651 -0.03852107 -0.028129214 -0.05344899 0.04009628 -0.09234301 -0.0034269523 0.058310345
0.14369148 0.15826902 0.011643377 -0.050274998 0.1593021 -0.05052468 -0.07732472 -0.2021753
0.058002908 0.066704206 -0.08108217 0.05412247 -0.0044744248 0.170863 0.17879999 -0.03474253
0.06118785 0.10282774 -0.0077196877 -0.084935 0.06674553 0.10199973 -0.15273102 0.048983205
-0.030218566 0.074464455 -0.08099032 -0.056401636 0.1494515 -0.014399269 0.14105333 0.07339711
-0.07027472 0.1332587 0.09582317 -0.021746134 -0.21790756 -0.08159055 0.14802082 -0.19688633
-0.094880454 -0.07204969 -0.12907636 -0.07456924 0.1581616 -0.06385048 -0.03201034 0.0046008234
0.036068764 0.091115355 0.124098174 -0.18743406 0.096625894 -0.14412469 -0.09214632 0.053123027
-0.15341334 -0.09398813 0.24528205 -0.14740849 -0.1292398 -0.14755802 0.08710125 -0.030117985
-0.11951183 0.05342833 0.16754062 -0.032521065 0.07949261 -0.031391513 0.0072539854 0.020758398
0.10053897 0.008745104 0.1984516 -0.05556563 0.06967903 0.16443887 -0.12531516 0.14642869
0.08193303 -0.10829772 0.10598259 0.007168194 0.16023682 0.1020252 -0.09177852 -0.021443954
0.058032446 -0.03797488 0.03639946 -0.05609327 0.17093581 -0.061940514 0.09307669 0.19764858
0.09945113 -0.066564605 -0.07766715 0.13960639 0.036230776 0.12352448 0.08030251 0.046071608
0.12891719 -0.07347583 -0.17024307 -0.038880054 -0.17076026 0.02906401 -0.023758715 -0.16585883
-0.14377391 0.077132955 0.04203939 -0.0005279007 -0.08532562 0.07781466 -0.09057997 -0.068729565
-0.13737367 0.19650453 -0.04316888 -0.06663614 -0.009535341 0.08159687 -0.12125707 0.07092706

lstm.weight_hh_l1 f4 [512, 128]
00000000: c7e3 863d 30d1 aebd f3b1 003d af83 96bb
00000010: e3c3 1bbc 9e50 e2bd 3ce1 c43d 0835 6ebc
00000020: c6d2 0e3d 09cb 903c 7afd cd3d 2320 dfbc
00000030: 903c bb3d a16c 2bbb 9fee c6bc ae06 3ebd
00000040: 4162 5e3d 21fd 243d 16b8 95bb aefb 0fbc
00000050: 115d 16bd 895f 08bd 8609 7fbd 6be2 963d
00000060: 2c3a 4e3c be38 cc3d 6af9 31bb ac6d 8d3b
00000070: c532 05be 9b73 393b bdee 14bd 3c36 a43d
00000080: 573f e03d d204 83bd a9a2 203c 9142 cd3d
00000090: d30b 0dbd d769 343d 6416 3dbd 5f0e f63c
000000a0: ea57 a2bc f056 d5bd bb2e 48bc a0d6 cf3d
000000b0: 73d4 16be f59d c53d 524c 8c3d 4a60 9abc
000000c0: 9b8c 96bd df3b b5bc 7e98 e93c 5d33 c8bb
000000d0: 90eb e1bc fedf aebd bd43 503d 7906 13bc
000000e0: 00a0 e7bd e396 b73d de14 43b9 5225 5ebd
000000f0: 0541 8cbd 867f a23d 9f9e 51bd eef2 11bd
00000100: c41f c2bd ba1e 7c3b 01eb 2fbd 1703 be3b
00000110: 2f3e 3a3d 15a9 2cbd da4b 2cbb 4db6 453d
00000120: a9b7 d8bd 69e4 ec3b eff5 b0bd fcb2 6fbd
00000130: f2af 21bd 3be9 503d 1e2d 6fbd 4827 823d
00000140: 5065 703d 285c 693d 6421 dbbd a9ae 2bbd
00000150: 90a5 9f3c 3e64 d03c 51bd 963d 91f7 b83c
00000160: faef 403c d59f 4a3d 5844 4bbd 8cc6 3d3d
00000170: 9b96 8dbc 0968 533c 424d babc a2f3 b0bd
00000180: 03a4 a53b b440 3cbd 3dc8 42bb 8d1d 3bbd
00000190: ca07 763b a11b 933d 6054 d9bd 663c 80bd
000001a0: 280d f7bc 2c91 be3c f4a6 52bd fd92 283d
000001b0: efe6 5fbd 22fd 36bc a28f ac3d 17c1 11bd
000001c0: c932 2c3d bc34 c43c f0c9 babc 6f7a 60bd
000001d0: a4b5 fa3a 4c46 9b3c 9588 a73d 2a17 98bb
000001e0: 88f1 2f3e 79f1 ebbd 2395 383d 0695 d9ba
000001f0: 454c bdbd 54c0 1dbd f865 82bd ec44 823c
00000200: 32be 0ebd 9c9f 803d 5e38 a63d 0fce 03bd
00000210: 4e17 393d 86ca 99bd cc89 03be 83b8 a9bc
00000220: 452e 25bb 36fb 2f3d ea81 bfba 5eb1 f3bc
00000230: 0a9f 323d 33ad be3c 72d9 9ebb 98f3 48bd
00000240: 0385 5ebd 16bc 323d 5974 013d 5c7e e6bc
00000250: c396 fc3c 4f61 a5bd 2a15 503c 3da7 b23c
00000260: f2f4 813d 6c51 8cbc 2623 87bd 086a 053d
00000270: c5ab 4b3d 8706 993c c412 bf3d 3010 803a
00000280: 1754 a2bd cc7e fdbc 88cf 073d e382 0e3d
00000290: 845b 0dbd dc1a 613d b2d2 a23c b2fe 70bb
000002a0: aff1 873d ced1 ddbc decc 38bd f056 4f3b
000002b0: eaa8 00be 1076 383d 4db8 8e3d 8d31 bebc
000002c0: d4f9 553d a8b6 d3bd 16c6 9fbd a11d 1a3d
000002d0: 2344 ad3c c5d1 6ebd e41c cabc 98d1 393d
000002e0: 2685 053d a85c 063d 8f05 22bc 5f4e 1ebc
000002f0: 3897 9c3d 3b1c 5e3c 0619 a5bd 43dd a6bd
00000300: 7680 733c aa52 ec3d 2a70 f43c 87d9 ae3c
00000310: 8ba9 95bb 9629 9ebd 9ab7 cdbd fc2f 0bbe
00000320: f72e 34bd bee3 a8bd 1bd3 023d e6ff 433c
00000330: 29e5 863d 927c 1bbb c1d5 863d f0f2 89bd
00000340: 597e b5bd f057 8bbd 8593 f7bc 1238 82bd
00000350: ae02 903c 7211 58bd d272 abbc 380d 323d
00000360: 9491 a43d 4321 dabc 6066 89bd c9c4 57bc
00000370: dc57 863d 0cee 323d 37ac 73bd 3a52 303d
00000380: 7942 88bb 2eb0 89bd 62ad 39bd e502 c93c
00000390: 7e67 bc3c 0795 f2bc 0867 6c3d 53c5 db3c
000003a0: bae9 d43d d502 f33c ad85 aebd 9b12 b1bd
000003b0: 56e9 ab3d b9be 333d cff3 8e3d b3d4 953d
000003c0: e210 463d 2388 013d 4406 c63d 78a9 803d
000003d0: fb15 6e3d fb2e 273d 0ddb 3d3d d607 97bb
000003e0: b439 863d fe01 41bd f5be c63b 1ded 85bd
000003f0: 3d65 d53c cfd8 3f3d 1d4e 0fbd 9d27 ab3c
0.06586414 -0.08535993 0.031419706 -0.0045933346 -0.009507152 -0.11050533 0.096132725 -0.014539011
0.034868978 0.01767494 0.100581124 -0.027237004 0.09142411 -0.0026157277 -0.024283705 -0.04639309
0.05429292 0.040280465 -0.004569064 -0.008788032 -0.03670985 -0.033294234 -0.06226494 0.073674046
0.012587111 0.0997176 -0.002715672 0.0043160524 -0.13007648 0.0028297666 -0.03636049 0.08018157
0.10949581 -0.06397404 0.009804406 0.10022462 -0.034435105 0.04404625 -0.04616393 0.03003615
-0.019817311 -0.10416973 -0.012218173 0.10148358 -0.1472948 0.096492685 0.068504944 -0.018844742
-0.07351037 -0.022123275 0.028515097 -0.0061096386 -0.027578145 -0.08538817 0.05084585 -0.008973711
-0.113098145 0.08964326 -0.00018604423 -0.05423481 -0.06848339 0.079344794 -0.051176663 -0.035632066
-0.09478715 0.0038470463 -0.042948727 0.005798708 0.04546946 -0.042153437 -0.0026290328 0.04826956
-0.105819054 0.007229377 -0.08640658 -0.058520302 -0.039474435 0.051003676 -0.058392636 0.063551486
0.05869037 0.056972653 -0.10699728 -0.041914616 0.019488126 0.025438424 0.07360328 0.022578986
0.011775965 0.049468834 -0.049625725 0.046331927 -0.017283728 0.012903222 -0.022741918 -0.08640219
0.005054952 -0.045960143 -0.0029721402 -0.04568248 0.0037541264 0.07183004 -0.106117964 -0.0626152
-0.03015764 0.023262583 -0.05142875 0.041155804 -0.054663595 -0.01116875 0.08425833 -0.035584535
0.04204062 0.023950927 -0.02280137 -0.05480426 0.001912762 0.018954419 0.08180348 -0.0046414332
0.1718198 -0.11520667 0.045064103 -0.0016600199 -0.09243063 -0.038513497 -0.06367105 0.015902005
-0.034849353 0.06280443 0.0811622 -0.032178935 0.04518824 -0.075093314 -0.12845534 -0.020717865
-0.002520458 0.042964183 -0.0014610861 -0.029747661 0.043608703 0.023275947 -0.004847699 -0.049060434
-0.05432607 0.043636404 0.0316051 -0.028136425 0.030833608 -0.08075201 0.012700358 0.021808261
0.06345548 -0.017128669 -0.06598501 0.032571822 0.04972436 0.01867987 0.09329751 0.0009770449
-0.07926195 -0.03094425 0.0331569 0.034792792 -0.034511104 0.054957256 0.019875858 -0.0036772904
0.06637894 -0.027077582 -0.04511725 0.0031637512 -0.12564436 0.04503447 0.06968746 -0.023216987
0.052240208 -0.10337573 -0.07801454 0.037625913 0.021150654 -0.05830552 -0.02467198 0.0453659
0.032597683 0.032803208 -0.009889021 -0.00966224 0.0764603 0.013556535 -0.080614135 -0.08147671
0.01486217 0.115392044 0.02983864 0.02134396 -0.0045673302 -0.07722776 -0.10044785 -0.13592523
-0.0439901 -0.082465634 0.031939607 0.011962866 0.065866776 -0.0023725373 0.06583739 -0.0673579
-0.088619895 -0.06803882 -0.03022171 -0.06358351 0.017579403 -0.052751012 -0.020928774 0.043469638
0.08035579 -0.026627189 -0.067089796 -0.013169476 0.065597266 0.04368405 -0.05949041 0.043047167
-0.004158315 -0.06723057 -0.045331366 0.024537513 0.022998568 -0.029612077 0.057715446 0.02682749
0.10396142 0.029664436 -0.085215904 -0.08646127 0.08394115 0.04388306 0.069800965 0.0731596
0.048355944 0.03162397 0.09669164 0.062823236 0.05812643 0.04081629 0.04635148 -0.0046090884
0.06553975 -0.04712104 0.0060652443 -0.065393664 0.02604925 0.046837624 -0.034986604 0.020892913

lstm.bias_ih_l1 f4 [512]
00000000: 48cb b03d a088 253e 3134 153e f323 763d
00000010: 18a5 033e d66b b83d aecc a43d d25e d63d
00000020: 2648 ef3d a88e f03c 2b49 65bb 756e 243c
00000030: 502f d93d adb5 173d b95e be3d e337 c73d
00000040: 6d25 2f3d 12ad 133e 5812 123d f965 edbc
00000050: 4945 6b3d d5cd 573e 22ca 9a3d 460a c53c
00000060: fd33 b73d 1aac 823d 38b7 063e 9438 f93d
00000070: f08b 913c b594 223d 8d1f 193e d80d b03d
00000080: 3b58 7c3d d9b7 7d3c 01bd 803d 891d 44bc
00000090: 5afe 0f3e 0df4 e13d bbc2 093e 8778 833d
000000a0: 3662 cf3d 922d 243e f623 113d 8033 bb3d
000000b0: 5c12 773d be0f 523d 9feb 013d 1d28 c83b
000000c0: ccda fe3c 6d5f 213e 8095 183e df5a d13d
000000d0: c63e 2e3e 1761 253e 1a4b fa3d db2a f03d
000000e0: 7552 0b3e 3869 373d 4f1f ed3d cb0a 0e3d
000000f0: 3334 093c a754 b43d ce02 cc3d dae9 b83c
00000100: 81f0 473e db46 183e e591 173e fef7 903d
00000110: 4c66 083e cbb1 cc3d 55ad 393e 152d 883c
00000120: 8a80 963d f4ca 2e3d 2ba3 303d ae55 013e
00000130: 66c2 0fbd cc26 cf3d a4c6 ab3d 56d4 a039
00000140: 49ba 073d 045d 9f3d 5d2b e93d 7709 223e
00000150: 7962 1d3e 39a3 a83d 1623 553c 1108 1a3e
00000160: 9eb9 1a3d 3fa8 0f3e 19d7 db3d 2ea2 053e
00000170: 8272 683c cced 31bc 38e6 da3d f869 073e
00000180: 58c2 1f3d 25f8 013e 9692 f73d 6741 fe3d
00000190: 46c3 493d c582 25bd 8c42 fe3c cfd5 0b3e
000001a0: e0f8 853d 5aa0 ea3b 70a0 d9bc e8b5 1f3e
000001b0: c715 453d 6b4f a83c 63ad 683d 52ab 243d
000001c0: 31d8 ce3d 4026 cb3d d71d c53c 0b66 ca3d
000001d0: 447f 093e 34ab e73d 6233 c73c e4cd 343d
000001e0: fb91 0c3e 876f 883d b01d 903d d846 c23d
000001f0: 5715 263d e23f 723c b7e5 a83b 5f34 963d
00000200: 9e16 0e3b 12ab ad3d 875f 13bd 5821 19bd
00000210: f97f 613d 3e40 68bc bc88 0dbd 59b4 6cbd
00000220: 79d0 9ebd 3e15 3b3d 7f84 873d de11 1a3d
00000230: aa89 f3bc 1061 97bd 6304 003d da4d 7ebd
00000240: 2a4f 923d 67cf 77bb 6982 063d dfed 923d
00000250: 6296 efbc d7ae 82bd 2885 793d c4e4 133e
00000260: b627 9cbb 6012 973d c0b3 f0bc 222e afbd
00000270: 123d 91bd 5111 153d 4e43 d83c 011b adbd
00000280: dd61 2e3d 07d3 4abd 20b5 94bd 48e2 87bd
00000290: c979 77bd a790 f0bd ddb9 8d3c e659 35bd
000002a0: c99c 6b3d 7106 df3d 133a 29bd 2f6e 6a3d
000002b0: d571 f53c da76 85bd ed4e 483b 97b6 963d
000002c0: c0cc 74bc a079 53bd 932e ae3d fef7 3bbc
000002d0: d68e d5bc f7ec d63d 3e79 ac3d 8648 cd3d
000002e0: c3bc 603c 9b51 8c3d 16b7 04bd 9746 e23d
000002f0: cf67 c0bc d9b5 503d 79a1 4c3d 5d50 a53d
00000300: bfa6 1d3d 2055 253c 9664 f6bb 77b4 2e3d
00000310: 6cb5 56bd 6742 5bbd 58ce 61bb d661 21bc
00000320: 14ac 6e3c f26a 14bd d40d 513c 4e71 c7bc
00000330: 61c5 863d 623a 6c3c a4fd 6cbd 3b70 7c3d
00000340: 1f5f 07bd ec85 a9bc d38f 863d fa84 1f3c
00000350: dcb4 1bbd 3dc1 6a3d 866a 9f3d b2e3 e6ba
00000360: 146e 293d 66fb b43d f393 c03d 015b 9a3c
00000370: 47c1 55bd 7123 ca3d 7d30 a6bd 7ded 06b9
00000380: ada4 72bd 0d0a 7e3d a254 18bd ed35 4f3d
00000390: e3c3 f9bb a31c 0fbd e8da 8dbd 116d 663d
000003a0: cb06 00bd e4f1 9d3d a32c 72bd 92a1 a6bc
000003b0: f468 1fbd fde7 7d3c c89e e53d 27dc d13d
000003c0: 7663 2a3d 9069 903b aad7 e9bc c801 3a3d
000003d0: 98a4 18bb 7e83 5b3d 5466 993d 1f3c cfbc
000003e0: deda 79bd b85e a5bd ce3a f43c 815f e7bb
000003f0: 6a1f acbd 94dc 433d 920f 54bc 721a eb3d
0.08632523 0.161654 0.1457069 0.060092878 0.12855947 0.09004943 0.08046852 0.10467304
0.11683683 0.029364899 -0.0034986238 0.010036101 0.10604727 0.037038494 0.09295411 0.097274564
0.0427603 0.1442149 0.035662025 -0.028979288 0.057439122 0.21074612 0.07558085 0.02405275
0.08945463 0.06380482 0.1315583 0.121689945 0.017766923 0.0396926 0.14953442 0.085963905
0.06160758 0.015485727 0.0628605 -0.011969932 0.14061871 0.11032877 0.1345319 0.06419473
0.10126154 0.16033009 0.035434686 0.09140682 0.060320243 0.051284544 0.031718846 0.0061082975
0.03111019 0.15759058 0.1490078 0.102224104 0.17016134 0.16150318 0.12221356 0.11726924
0.13605674 0.04477808 0.11578237 0.03467826 0.008374262 0.08805209 0.099614725 0.022572447
0.19525339 0.14870779 0.14801748 0.07078551 0.13320273 0.09994849 0.18132527 0.01662306
0.07348736 0.04267402 0.04312436 0.1263034 -0.035097502 0.10114822 0.08387497 0.0003067578
0.03313664 0.07781413 0.11385224 0.15823923 0.15369596 0.08234257 0.013008853 0.1504214
0.037774675 0.14029025 0.10734386 0.13050148 0.014187457 -0.010859918 0.10688442 0.13224018
0.0390037 0.12692316 0.12088506 0.12414818 0.049258493 -0.040407915 0.031037591 0.1365578
0.0654161 0.0071602287 -0.02656576 0.15596735 0.04811647 0.020545682 0.05680598 0.040202446
0.10099829 0.09919405 0.02406208 0.098827444 0.13427454 0.11311951 0.024316493 0.044141665
0.13727562 0.06661897 0.070369124 0.094861686 0.040547695 0.014785739 0.0051543373 0.07334208
0.0021680961 0.08479895 -0.035979774 -0.037385315 0.055053685 -0.014175473 -0.03455423 -0.05778918
-0.07754607 0.045674555 0.066170685 0.037614696 -0.02972873 -0.0739156 0.031254184 -0.062085964
0.071440056 -0.003781283 0.032839213 0.071742766 -0.029246513 -0.06381004 0.060918003 0.14442736
-0.004765476 0.07376552 -0.029382586 -0.08553721 -0.07091726 0.036393467 0.02639928 -0.08452416
0.0425738 -0.049517658 -0.07261109 -0.066349566 -0.060418878 -0.1174634 0.01730054 -0.044275187
0.05752257 0.108899005 -0.04131515 0.057233986 0.029961506 -0.0651681 0.0030564622 0.07359045
-0.014941394 -0.051629663 0.08504977 -0.0114727 -0.026069086 0.10494416 0.084215626 0.100235984
0.013716879 0.068515025 -0.032401167 0.1104862 -0.023487 0.050954673 0.04995868 0.08071969
0.0384891 0.010091096 -0.007519315 0.042652573 -0.05241911 -0.053530123 -0.0034455266 -0.009849986
0.014567394 -0.036234803 0.012759645 -0.02434602 0.06580616 0.014418216 -0.057859078 0.06163047
-0.0330497 -0.020693742 0.06570401 0.009736294 -0.038014278 0.057313193 0.077839896 -0.0017615466
0.041364744 0.08837013 0.09403219 0.018842222 -0.052186277 0.09870041 -0.08114717 -0.00012867707
-0.05923908 0.062021304 -0.037190087 0.050588537 -0.0076222285 -0.03493942 -0.06926519 0.056256358
-0.03125648 0.077121526 -0.0591246 -0.020340715 -0.03891845 0.015497205 0.11211926 0.10247069
0.04159876 0.0044071153 -0.02854522 0.045411855 -0.0023291465 0.053592198 0.07490221 -0.025297223
-0.060999744 -0.08074707 0.029813197 -0.0070609455 -0.08404429 0.04781778 -0.012943165 0.114796534

lstm.bias_hh_l1 f4 [512]
00000000: 475f 003d bc8d 3e3e de2d 6c3d c9ba 003e
00000010: aae8 743c 648b 843d 8cbb f43d 6e48 eabc
00000020: 3e8f 343d e833 833b 0b3c 053e 9414 8d3d
00000030: 390b b8bc 3218 f53d 197d 943d b3c6 5a3d
00000040: 4f3d c43d 0c41 853d e02b f93c 4b18 cf3d
00000050: 596f b33d a7a2 c43d 6729 143c 96d8 fd3d
00000060: 0688 d33d c066 adbb 7842 0c3e 6b9e db3c
00000070: aed8 0e3e f1d7 523d 68ab 1e3e 4264 013c
00000080: 257b 9e3d bfd9 073e 6d62 f7bc 0b88 9bbc
00000090: af64 ac3c 4f00 bd3d 555b 0a3c f879 fd3d
000000a0: e4bb 0c3e 53b8 e4bb dbac 073e 2cac bd3d
000000b0: b281 5b3d 9ab5 a03d 4d10 f53d 2dab b13d
000000c0: 5321 f83d 9459 0f3e ed50 dd3d 27a9 50ba
000000d0: 8d0e 0b3d 4bb5 613d ddb6 a4bc 3e84 793d
000000e0: 669f a73c 379d 5f3c d81c d5bc a455 363d
000000f0: 7896 d63d df96 a93d a41e b8bc d3d3 60bc
00000100: aee1 f73d b1d9 ab3d 4456 b83d 9a0a b63d
00000110: 5909 d63c 6d01 083e 76b5 2c3e 79f0 bb3d
00000120: d97d 383c 5aec 143d 620c 173e 78c8 0d3d
00000130: 87b1 8b3c fe0b a53d 950a 0c3e 6859 933b
00000140: 66a6 143e 5897 5d3c 60d6 0c3e 8df3 1f3e
00000150: d64e 1c3e efb9 0f3e 7a53 82bb 9cdd 0a3e
00000160: 966a 1a3e 6ec3 123e ef56 173e 8f44 c13c
00000170: 1ef3 b53d 5e23 f63c 21ea 143c 19c3 44bc
00000180: daa4 693d 1295 a63d f2f3 013e fc65 203d
00000190: a05a 903d 7848 b93c cb8a 063e 8bb3 e13d
000001a0: 89e8 e83a 7fb3 fe3d 8547 e33d 22dd 433d
000001b0: f058 4c3d 6b11 b73d d5bb 203d d77e dabc
000001c0: 7002 153d 861c ec3d ebb9 bebb b933 5f3d
000001d0: 9369 ab39 1af4 653d b7a6 503d ec76 0f3e
000001e0: 013c 993d 2009 0b3d 7246 193d 747a d73d
000001f0: 6dbd 333d e9d3 f83d d8cd 0a3e 1abb a53c
00000200: c7ad 4d3d ebac 0c3d 2e89 073d f8f6 ccba
00000210: fc83 853d 3dc4 053d fa6b 9a3c 9502 01bd
00000220: 71dd 003d 9080 f43d 6c7f e13c b644 14bd
00000230: ba9e 75bd c94c 22bd d98e 243c 29cc 8cbc
00000240: 51ee 573d 6d6f a0bc 8bb5 80bd ed78 a23d
00000250: 6367 b93d e1ef 703d 786a f33c 8e2c 143e
00000260: f1a3 1bbd 4507 473d 9861 7c3d 1a88 a03d
00000270: a7ec 9fbd 6db1 833c fc03 e9bc 3fda 89bd
00000280: c943 7ebd 67c2 abbc 78e8 6a3d 93df 78bd
00000290: 9776 c1ba 0368 a0bc d0d0 3dbd 3ecf 5d3d
000002a0: 13a2 a83c c506 993d 7f8a d63d 936e 75bc
000002b0: 9650 f8bc 17ce c03d 81de 07bc 5392 d83d
000002c0: 7e87 3e3c f87a 90bb 3d57 473c 6d55 75bd
000002d0: 4501 7d3d 2777 bf3d 6509 773c 5bb5 d33d
000002e0: 7669 983d de18 dd3d 83ea 9ebc ff78 bc39
000002f0: 1756 a23d 074d b83c 410b 9dbd 0f10 98bc
00000300: e197 273d d2fe af3d 2b43 5b3d e7cc 243d
00000310: 0e6a 113d 8ea8 8f3d 21f8 afbc 9fd4 01bc
00000320: 9f3b 59bd 2608 173d 09bf 6abd 6c70 dc3c
00000330: eaf5 053d 23ba 96bb 8cd7 80bc 2a42 6cbd
00000340: f542 71bd eb0f d8bd 47b2 afbd a90d 3b3d
00000350: 1201 58ba 16cf 993d 3767 93bc 28f1 b73d
00000360: 508c 07bd 8146 c63d af8e b53d a23b 57bd
00000370: 6345 9e3d 337d 7abd 4de5 953d 15b9 653d
00000380: c44e 8cbd 7738 b03c 8545 77bd a0ba d13d
00000390: 0160 153d cce1 8b3c f42a 84bd 0d4d 6ebd
000003a0: a5ce cd3d 333a ce3b d2d3 3e3d 9955 2bbd
000003b0: 4061 893b b180 003d cd3b a4bc fa26 b5bc
000003c0: 900a 8c3d 826b 07bd 8f2d 11bd 98fd 1a3d
000003d0: be2a 073d 4edc 993d 30bd aebd 8f4b f4ba
000003e0: 8907 c2bd 4e13 bdbd 0c35 9b3d 4fd4 9c3d
000003f0: f9bb 923d 48a2 6c3d 86f3 233d af0a a43c
0.031340864 0.18608755 0.05766093 0.12571253 0.01494805 0.06471899 0.11949834 -0.02859899
0.04408192 0.0040039904 0.13011186 0.068886906 -0.022466289 0.119675055 0.07250423 0.05341215
0.09582006 0.06506547 0.030416429 0.101120554 0.08761472 0.09601336 0.009043074 0.12394826
0.10328679 -0.00529179 0.13697231 0.026808938 0.13949844 0.05147547 0.15495074 0.0078974385
0.07738332 0.13266657 -0.0301983 -0.018985769 0.021044103 0.092285745 0.008444627 0.12376779
0.1374355 -0.006979981 0.13249533 0.09261355 0.053590484 0.07847138 0.11966 0.08675227
0.12115731 0.13999015 0.10806451 -0.0007959776 0.033949424 0.055104535 -0.020106727 0.06091713
0.02046175 0.013648323 -0.02601473 0.044515267 0.104779184 0.082807295 -0.022475548 -0.013722378
0.12103592 0.08391131 0.09000829 0.08888741 0.026127504 0.13281794 0.16866097 0.09176726
0.011260473 0.036358215 0.14750817 0.03461501 0.017052425 0.08058928 0.13675912 0.004496742
0.14516601 0.013524853 0.13753653 0.15620251 0.15264449 0.14035772 -0.0039772363 0.135611
0.15079722 0.14332363 0.14779256 0.023592262 0.088842615 0.030046161 0.009089024 -0.0120094055
0.05704198 0.08133902 0.12690714 0.03915976 0.07048535 0.022617564 0.13138883 0.11020573
0.0017769496 0.1243658 0.11097626 0.04781831 0.049889505 0.08938869 0.03924163 -0.02667181
0.036379278 0.11528878 -0.005820503 0.054492686 0.0003269432 0.056140997 0.05094024 0.14010209
0.07482148 0.03394425 0.037420698 0.10521403 0.043881822 0.12149794 0.13555086 0.020230819
0.050214555 0.034344595 0.03308981 -0.0015637567 0.06519315 0.03265785 0.018850315 -0.031496603
0.031461183 0.11938584 0.02752658 -0.03619834 -0.059965827 -0.03962401 0.010043823 -0.017187195
0.05271751 -0.019584382 -0.062846266 0.07933221 0.090529226 0.058822516 0.029713854 0.14470121
-0.037998144 0.048590917 0.06161651 0.07838459 -0.0780881 0.016075814 -0.028444283 -0.0673108
-0.062076364 -0.020966722 0.057350606 -0.060760092 -0.0014760074 -0.019580847 -0.046341717 0.05415272
0.020585096 0.07471994 0.10475635 -0.014979976 -0.030311864 0.094143085 -0.008292795 0.10574784
0.011628984 -0.0044091903 0.012166795 -0.05989592 0.06176879 0.093488984 0.015077923 0.10337325
0.0744199 0.10795759 -0.019398933 0.00035948303 0.079265766 0.022497667 -0.07668162 -0.018562345
0.040916327 0.08593525 0.053530853 0.040234473 0.035501532 0.07014571 -0.021480622 -0.007924228
-0.053035375 0.036873005 -0.05731109 0.026909076 0.032705225 -0.004599826 -0.01572778 -0.057680286
-0.058901746 -0.10549911 -0.085789256 0.045667324 -0.00082399056 0.07510202 -0.017993553 0.08981544
-0.033092797 0.09681416 0.08865105 -0.052547105 0.07728078 -0.061154556 0.07319126 0.05608471
-0.06850961 0.0215113 -0.060369033 0.10240674 0.03646851 0.017075442 -0.06453505 -0.05817895
0.1004918 0.006293559 0.046588726 -0.04182968 0.0041925013 0.03137273 -0.020048046 -0.022113312
0.06837952 -0.03306151 -0.03544384 0.037839502 0.032999747 0.07512723 -0.085321784 -0.0018638241
-0.094740935 -0.09232198 0.07578477 0.07657682 0.07164759 0.05777195 0.040027164 0.020024626
