model_weights.pth (torch, 209548 bytes, 10 tensors)

lstm.weight_ih_l0 f4 [256, 4]
00000000: fb82 8c3f ca67 b0be 23f8 13bf 65d6 09bf
00000010: 4013 ee3e 724f 90bd 4998 4ebf 179b 84be
00000020: 3528 c0be 5b24 edbe e3fa 34be 2438 bdbd
00000030: a9fd c63d cd1e 303f c2a4 723e 4972 08bf
00000040: 913e 843f 70f4 5d3f 5a33 863e d68a 89be
00000050: 1405 cdbe 842b 81bf 45f5 423f 3212 c0bf
00000060: d637 ccbe 0be1 7d3d a5df dcbe a16c debe
00000070: 55ba 543f 8e6a 0cbf cfaa 20bf 3451 43bf
00000080: c3de 0f3f 023e d5be 276b 283e ec2a fd3e
00000090: 06b3 8abe f387 53be b4c5 4cbe 832b babd
000000a0: 7fc5 1f3f efce 83be a835 dabe fd13 f6be
000000b0: db1d f73d 9e6d bbbe 7b2c 5a3e 3a4d ec3f
000000c0: 50f6 0b3f d71e 8a3e f43d 0c3f f115 1c3f
000000d0: d3c6 d1be 1aa1 7d3e 259b dd3e 64c6 c63e
000000e0: da86 4bbf 0875 3c3f 6d2e 6dbf d9ce 92bf
000000f0: 0f29 bc3f e3fc 483f 3e1e 4abf 198e 49be
00000100: 8f8e c93c 990f aabe 0cbf 14be 257b 0ebf
00000110: bc6c 133e 7061 03bd f25f b33d 6feb 093f
00000120: 1323 9b3e 4e2a 0cbf b6ec bb3e 789d 4b3f
00000130: 8ec8 033f 5452 5cbe a829 eb3e 8f1f 113c
00000140: 8575 3c3b 0f6a 93bd cbe9 f4bd a2c7 213e
00000150: 1dbb 913e 4273 c4be aa23 c23d 43e3 b8bd
00000160: 486d 693d e954 1ebc d82b 30be 380e a3bc
00000170: 233a f23e 61d7 63be 866e 023e 9dcf 063f
00000180: 3880 543d c709 c73e 41de 6a3e f929 213f
00000190: 80ee a93d 959c 25be 8bb1 923e 984d 0f3e
000001a0: 978c 0abd a318 a73d 0c78 3abf de41 b1be
000001b0: ddee 463d d8cc 983f 6179 13bf f5d7 323e
000001c0: 039d 363e 29fc 0b3e 0a39 a73e a30d ba3e
000001d0: 8338 02c0 61de 003f b506 5bbe 0672 bd3d
000001e0: 9095 823f 09b7 8d3f b271 a4be 13a0 1a3f
000001f0: c633 d33c 7123 2abf a102 873c e295 893f
00000200: 668a 563c 844e c3be 8ae3 cb3d 7660 de3e
00000210: 0ce0 a53e ae3d bebe ef15 993f bd93 27bf
00000220: 1a1a 903f d83d 153f 2eb9 b53f f21a 6fbf
00000230: 72c3 f63e f135 573f ee4f 36bf 272e 8bbf
00000240: 6b8d 773f 35e8 a0bd 8bcd 5f3f 9cbc 923d
00000250: 1571 98be f3dd 60bf 76a3 0dbc b9c0 de3f
00000260: 348c 303f d642 7d3e b6e7 2f3f 4b97 be3e
00000270: bdfc c63e 44e7 b3be d57d b13e 8fc1 00be
00000280: bfe5 cb3e 7a55 16bf 68c8 a3be 28de 963f
00000290: 1c29 ebbd c5d1 633e 47f4 b33e 4f3d 05bf
000002a0: 301b bdbe b9d1 9cbe 8090 083e d1c1 a63f
000002b0: bcf6 b8be 2d8b 853e 31d5 303f d628 b63f
000002c0: 957b 9b3d bccd abbd 73e5 6b3f 8c0a 323f
000002d0: 6868 993d 776a 75be 92c5 1b3f 6bfc 5b3d
000002e0: 33d5 4d3e c67d b4be cb22 f63e a18d d3be
000002f0: a48c 60bc 51d9 53bf 51ba 4bbd 108f af3e
00000300: 5973 993e bd3e 1bbe 36d1 fbbd 8ede 763e
00000310: 0611 fe3e bbba 903d 9d53 b53d be2a 143d
00000320: a241 673f e744 3dbf f6e6 c93e 2673 293f
00000330: ffe2 1c3f 8852 2bbf 45cb 10bf 5548 aa3f
00000340: 1f8c 413f 849d aabe f01c cc3e 9b18 023e
00000350: 1a6f 88bd 17ef a3be fd33 02bd 28b4 9c3e
00000360: 2594 1b3f 3681 57be 06ce d9be a487 53bf
00000370: 6fc4 16bf da2f 593f c22f dcbf 7762 f6bf
00000380: db4f b13f fd0c 2c3e 881c 633e f9f1 96bf
00000390: bedb afbe 2703 59be e56e a7bf 13c6 0c3e
000003a0: 1b6c a73d 27c2 b4bd ceb6 5a3e 0c2f 8bbe
000003b0: 23d2 993f cf77 113f 67e9 5f3e be30 af3c
000003c0: 41fb 223e 266d 663d bf14 13be b66c 363f
000003d0: 7ee6 9a3e e8ba d1be 4f61 883e 97fd 20bb
000003e0: bda7 363d 01a6 24be e6c2 3d3d b864 51bd
000003f0: 5738 693f 1662 5b3f 7fe3 1dbf 8abf acbe
1.0977472 -0.34454185 -0.578005 -0.53842765 0.46499062 -0.07046403 -0.8070112 -0.25899574
-0.37530676 -0.463168 -0.1767383 -0.092392236 0.097163506 0.68797 0.23695663 -0.53299385
1.0331594 0.8670111 0.26211053 -0.26863736 -0.40042937 -1.0091405 0.761555 -1.5005553
-0.3988635 0.061982196 -0.43139377 -0.43442252 0.8309682 -0.5485009 -0.62760633 -0.7629578
0.5619928 -0.4164887 0.16447125 0.4944681 -0.2708971 -0.2065733 -0.19997293 -0.090903305
0.6241073 -0.25743815 -0.4261906 -0.48062125 0.12066241 -0.3660707 0.2130603 1.8461068
0.5467272 0.26976654 0.5478203 0.6097098 -0.40972003 0.24768487 0.43282428 0.38823235
-0.7950264 0.73616076 -0.92648965 -1.1469375 1.470003 0.78510875 -0.78952396 -0.19683112
0.02460411 -0.33215025 -0.14526004 -0.55656654 0.14396948 -0.032075346 0.087585345 0.5387487
0.30300197 -0.5475205 0.36704034 0.79537153 0.514779 -0.2151578 0.4593022 0.008857622
0.002875657 -0.071979634 -0.11958655 0.1579881 0.2846307 -0.38369185 0.09479459 -0.09027722
0.056988984 -0.009663799 -0.17204225 -0.019904241 0.4730998 -0.2225013 0.12737474 0.5266054
0.05188009 0.38874647 0.22936346 0.6295467 0.082974434 -0.16173013 0.2865108 0.13994443
-0.033825483 0.08158996 -0.72839427 -0.34620565 0.04856764 1.1937513 -0.57607085 0.17465194
0.17833333 0.1367041 0.32660705 0.3633853 -2.0346992 0.50339323 -0.21389277 0.09250264
1.0201893 1.1071483 -0.32117993 0.60400504 0.025781523 -0.6646033 0.016480746 1.0748866
0.01309452 -0.3814584 0.09955509 0.4343297 0.32397497 -0.37156433 1.1959819 -0.65459806
1.1257966 0.5829749 1.4197137 -0.9340049 0.48195988 0.84066683 -0.71215713 -1.087346
0.9670016 -0.0785679 0.8742301 0.07164881 -0.29773775 -0.8783867 -0.008644929 1.7402564
0.68963933 0.24732527 0.6871294 0.37224802 0.388647 -0.3513738 0.34666315 -0.12573837
0.3982372 -0.58724177 -0.31988835 1.1786547 -0.1148245 0.2224799 0.35147306 -0.52046674
-0.36934805 -0.30628756 0.13336372 1.3027898 -0.36125743 0.26082745 0.69075304 1.4231212
0.07591931 -0.0838885 0.92146987 0.69547343 0.07490617 -0.23966394 0.60848343 0.05370752
0.2010086 -0.35252208 0.4807342 -0.41318992 -0.013705406 -0.82753474 -0.049738232 0.34288836
0.29970816 -0.15160652 -0.12295763 0.24108335 0.49622363 0.07066866 0.088538386 0.036173575
0.9033452 -0.7393326 0.39434022 0.6619133 0.6128387 -0.6692281 -0.56560165 1.3303324
0.7560443 -0.333233 0.39865828 0.12704699 -0.06661816 -0.3201835 -0.03178786 0.30606198
0.60772926 -0.21045384 -0.42539996 -0.82628846 -0.58893484 0.8483864 -1.7202075 -1.9248799
1.3852495 0.1680183 0.22178853 -1.1792594 -0.34347337 -0.21192609 -1.3080717 0.13747434
0.08174916 -0.08826094 0.21358797 -0.2718433 1.2017254 0.5682344 0.2186638 0.021385547
0.15916158 0.056256436 -0.14363383 0.7125963 0.30253977 -0.4096291 0.2663674 -0.0024565214
0.04459356 -0.1607895 0.046328448 -0.051121444 0.9110159 0.8569654 -0.61675256 -0.33739883

lstm.weight_hh_l0 f4 [256, 64]
00000000: e87e c13d 4496 13bd 871a a93f f786 c33e
00000010: a10b 1dbd 615d 5f3f e1af 98be 5a4c aebe
00000020: 4bec 6b3f 55f1 19bf 8c88 2ebf 6b4a 01bf
00000030: 0c4b 0b3f ab7c 113f aeac 823f 797e ed3e
00000040: 78fb 60bf 8b36 65bd ad03 4c3f eb56 8ebe
00000050: 448f 7dbe dde6 9bbe e6a3 9fbd 1c56 6a3e
00000060: fcae 963e f9dc b83e b457 dcbb 70ae 993f
00000070: 04d2 83bc df38 de3f ff18 263f 3511 f83e
00000080: c64c ae3e 0fcd 71bf 8a5f 38be f910 5ebf
00000090: 55c4 5dbf 28b7 6e3f eed6 493e 4c25 643e
000000a0: ec6a cebd dff9 0abe c825 a4bc 5066 373f
000000b0: dfc1 84be 9709 3a3e 4e96 26bf 972b 94be
000000c0: daf7 ad3e 0411 07be 4eb0 25bf f2d2 483e
000000d0: db44 223e 3a39 8c3e b78e 063e 30ca d83f
000000e0: db94 e4be 2b32 d63c 13e7 493c e936 d23e
000000f0: 759d 013e 3c3b c63e bc09 09bf 2352 96be
00000100: 613b 6bbe 3d8d 8ebe 91dc fdbe 884f 1ebf
00000110: 60d8 e53e e0f1 50bf 6982 0c3e c43c d3bd
00000120: bc3f 85bf dace f13e b15d e53e 37ec a03f
00000130: 5784 18bf 653a 1ebf d486 5dbe 5dac 19bf
00000140: a880 db3e 26a5 12be b4ef 81bf 11cf 7a3e
00000150: 2746 673f 6eb0 673e ae66 9dbe 0e46 8f3e
00000160: c5f8 c3be bcde ac3e a5d0 18be 3da4 c8bf
00000170: 0f52 ca3d a84c 90bf c5aa 083f cc51 843e
00000180: a698 843e 6f2e 483f 267e 25be 8e10 aa3f
00000190: fcbd 453f d75a 35bf 8ce8 81bf e4b5 04bf
000001a0: 8f6c 073e 5e79 1ebe 5682 adbe d517 25bd
000001b0: 9f36 81bd 29f6 ec3e 11dd c13e 1310 783f
000001c0: 2223 11bf c5ad 253e 7083 323f b12d 10bf
000001d0: bbfc c83e ce3d 573b f409 bdbe 9227 9dbf
000001e0: df76 06be d56e de3d 6160 8a3e 1c13 7fbe
000001f0: 5e5f 0e3e 2ce2 84bf e1d5 08bd d2a8 d13e
00000200: 6ecc c73e b396 98be 1e18 74bd e5c7 bf3f
00000210: 602b 3e3f 8417 a5bd e20f b2bc 8bb7 14bf
00000220: 961c 7abd 1aaf b43d 7a74 ae3e 1358 b5be
00000230: 38ba 6e3f 08ac 993e 6e07 bc3f 5bc3 443f
00000240: 5f02 19bf 925f 363e aa87 003f c5f0 6cbe
00000250: 4d74 1b3f 7017 21be 9e4a a7bd b8e9 0dbf
00000260: 5533 d2be 63f4 96bd cee6 203e 0914 243f
00000270: 42f3 ddbd 16af 3d3f 53a1 21bf 1d4e f6bb
00000280: 0576 813f e35b 1cbf a538 58bf 51cd a43e
00000290: b244 53bf a4ae b43e fc2d 573f 6609 d23d
000002a0: 8313 1a3b c02c ffbe df90 00bf ce6c 033e
000002b0: cf10 64bf 453c 44bd 2a53 efbe a015 79be
000002c0: fcee d83d aee9 b83e 7df3 9abf 55ec 44bd
000002d0: 6f07 393f c4d3 92bd 2754 a23f ff2e c93e
000002e0: 59c1 71be 0a08 c3bd 13b8 3cbe 7aea b53e
000002f0: 8073 4f3f fdb4 7c3e 67a8 f13e 5a46 33bf
00000300: 0cfa 8dbf 4805 883e 6457 163f dce2 263f
00000310: 90b1 a1bf ce80 673f b547 84be fb69 e9be
00000320: e459 143f 3713 07bf 0e0f 94bf 4085 b3bd
00000330: 5fc1 1b3e caf6 3d3f 848c 583f fd77 e8bd
00000340: 766a acbe 336a 263e 7f82 143f f958 76be
00000350: 5b20 a4bf e727 6bbd 3fea 4b3f d23a 263e
00000360: 93c7 8d3f fcd0 ae3e 694f 2d3f f45b af3d
00000370: 6ac5 3b3d c43b f23f 3fb7 edbf 1a67 0d3e
00000380: 82ea e1be 77c1 47be 69a1 ba3e 838c c7be
00000390: 867e 1f3f a1fe f83d 48c4 a1bd 3d43 3d3d
000003a0: eb3d eabc 37fd 0d3f 0b20 82be 61ba 77bd
000003b0: f2b2 833d 9728 a5be d95c ffbd e4bc 2dbf
000003c0: c3ab 8e3e 84df 613d 4357 fcbe d6b8 0d3f
000003d0: 92a5 7fbd 82ca 0ebc 54a6 bbbd 4244 2a3f
000003e0: 8e80 373e 8fb8 f93d 8994 9c3e a075 94bc
000003f0: 7831 863f bc36 743f 059d 9d3e 86fc c43b
0.094480336 -0.036031976 1.321122 0.38188908 -0.03834117 0.8725186 -0.29821685 -0.34042627
0.9215743 -0.6013387 -0.68177104 -0.5050418 0.5441139 0.56830853 1.0208948 0.46385553
-0.8788371 -0.05596022 0.7969311 -0.27800688 -0.24761683 -0.30449572 -0.07794933 0.2288441
0.29430377 0.3610609 -0.006724322 1.2006359 -0.016091354 1.7361106 0.6488189 0.48450628
0.34042948 -0.9445352 -0.18005195 -0.8674465 -0.86627704 0.93248224 0.19710895 0.22279853
-0.100789875 -0.13571881 -0.020037547 0.7164049 -0.25929162 0.1816772 -0.65073097 -0.28939506
0.33978158 -0.13190085 -0.64722145 0.19611719 0.15846579 0.2738741 0.13140379 1.6936703
-0.44644818 0.026146969 0.012323159 0.41057518 0.12657721 0.38717067 -0.5353048 -0.2935954
-0.2297187 -0.2784213 -0.4958234 -0.61840105 0.44891644 -0.8161907 0.13721623 -0.103143245
-1.0410075 0.47228128 0.44798043 1.2572087 -0.59576935 -0.61807853 -0.21633464 -0.6002863
0.42871594 -0.14320812 -1.0151277 0.24493052 0.9034142 0.22625896 -0.307424 0.27983135
-0.38275734 0.33763683 -0.14923342 -1.5675122 0.09878933 -1.1273394 0.53385574 0.25843656
0.25897712 0.7819585 -0.16161403 1.3286302 0.7724302 -0.70841736 -1.0149093 -0.51840043
0.13225006 -0.15475985 -0.338885 -0.04030593 -0.06309246 0.46281555 0.37863973 0.9689953
-0.56694233 0.16179569 0.6973181 -0.5631972 0.39255318 0.0032843235 -0.36921656 -1.2277701
-0.13131283 0.10860983 0.27026656 -0.24909633 0.13903567 -1.0381522 -0.033407096 0.40949112
0.39023155 -0.29802474 -0.059593312 1.4982878 0.74284935 -0.08061126 -0.02173609 -0.58092564
-0.061062418 0.088224605 0.3407324 -0.35418758 0.932529 0.30014062 1.4689767 0.7686059
-0.59769243 0.17809895 0.50207007 -0.23138721 0.60724336 -0.15731597 -0.08168529 -0.5543475
-0.41054788 -0.07370832 0.15713045 0.6409307 -0.10837413 0.74095285 -0.63136786 -0.007516636
1.0114142 -0.6107771 -0.8446143 0.32187894 -0.82526696 0.3528949 0.8405454 0.10255699
0.0023510165 -0.4983883 -0.50221056 0.12834474 -0.8908815 -0.04790904 -0.46743137 -0.24324656
0.10592458 0.36115783 -1.2105557 -0.048076946 0.7227697 -0.07169297 1.2681931 0.39293668
-0.23608913 -0.09523018 -0.18429594 0.35530454 0.81035614 0.24678417 0.47198793 -0.7002922
-1.1091933 0.2656653 0.587271 0.6518991 -1.2632313 0.90430915 -0.25835958 -0.4558867
0.5794966 -0.52763695 -1.1567094 -0.0876565 0.15210484 0.74204695 0.8458941 -0.11351011
-0.33674973 0.1625145 0.5801162 -0.24057378 -1.2822374 -0.0574111 0.79654306 0.16233376
1.107653 0.34143817 0.67699295 0.085624605 0.045842566 1.8924489 -1.8571547 0.13808861
-0.44124228 -0.19507395 0.3645127 -0.3897439 0.62302434 0.121579416 -0.07898766 0.0462067
-0.028593978 0.554645 -0.25415072 -0.06048048 0.064306155 -0.3225753 -0.12468881 -0.6786635
0.2786542 0.0551448 -0.49285325 0.5536016 -0.06241376 -0.008715274 -0.09162584 0.66510403
0.17920133 0.12193405 0.30582073 -0.018122494 1.0483847 0.9539602 0.3078386 0.0060115485

lstm.bias_ih_l0 f4 [256]
00000000: a91d e73d 0a4b 013e 7dbb b5be b4a5 5d3e
00000010: 8b69 723e 2aed bc3d 1ad1 b53d 38b8 af3c
00000020: f19d 993e 2520 83be 3d5b 0f3d 4afc a63e
00000030: 77fa 663c e82b 58be e660 bb3e a4ca 443d
00000040: 7e69 ecbe 5ec8 ca3d 4a87 12be 3c45 cd3e
00000050: 01da 0dbe 1651 21be 216b f23d df14 d73d
00000060: c2d9 ccbd 6a19 2bbd 469c 88bb ecb6 313d
00000070: bac1 e23d b0ba c43e ab06 253f da7c 2dbe
00000080: 71e7 853e 2a4f 4a3e c77b 703d 342c e53e
00000090: c7d9 d13e 0ec6 c5bd 5c64 663f a462 623d
000000a0: d24b 15bd 3364 793e 2770 2e3e 1497 22bd
000000b0: cbe5 89be a4eb 533e a258 0ebe fd9f 54be
000000c0: a2ec 3a3e 52ed 43bc feda df3e ed39 05be
000000d0: bd66 84be 5a0c 3dbc 06d8 1abe 07d9 f33e
000000e0: 9da2 013d f8dc 3a3e a341 493d 670f 61be
000000f0: 7d86 5b3f 94a1 10bd 802e 6dbe ac93 7a3e
00000100: b814 36be 63db e33e d490 9d3e bbf2 13be
00000110: a0ad 3fbe 984d 6dbb a433 37be 9e8f 283f
00000120: 7ba0 033e c0f2 ea3e 6016 e03e 1e84 fc3e
00000130: d0f0 b5bc 61ab 1f3e 3243 803d bf20 1b3e
00000140: 5075 7bbe 1f31 9f3e ea0a 9dbd 8f59 b03e
00000150: 44fc 9f3e 553e cc3e 5731 993e e8bf 9f3e
00000160: f47f 0e3f 5fd3 a93e 7941 98bd 875c f2be
00000170: d466 ac3e beb0 c3be 6766 a9bd 4155 c83e
00000180: b71f 2a3f 61e1 313e d786 adbe dbef d2be
00000190: 70b6 b0bd d91f 8e3e 6ed4 60be 17e3 ea3e
000001a0: ff90 b93e 7719 013e 3f03 453d 2b26 39bd
000001b0: b902 273e f7a7 d03e dac6 c63e b7bf 833e
000001c0: 3f2f fc3e 1930 523e b2e4 933e d0f2 433d
000001d0: 318f 27bd 1cea e53e 58c9 2fbd 61ca 80be
000001e0: 61a8 b93d 149c 51bd 44de bf3e 65b2 77be
000001f0: fc57 fabe ff71 463d 3e0b 373e 5511 1e3e
00000200: b174 84be 077a bf3e ffcd 173e 9a2a 66bd
00000210: 2897 04bc 299c d0be f2fd 39bf d244 463e
00000220: 3d6f 5abe 0fb5 b3bc ff14 9bbd 53e1 bebe
00000230: 43d7 b63e a543 8b3e 7c9a d13d 1ec3 53be
00000240: 3a43 c33d d22a f33d 456a 8c3d cf84 fd3e
00000250: 4de7 163e 215e 033e d418 9d3e dd50 92bd
00000260: f43e 8b3e a629 19be 986d fe3e 5a3a a33e
00000270: 25ff 9a3e 8c53 633e b163 08be 3386 67be
00000280: 30bd 80be dc60 023e ad3a 313e ac16 84be
00000290: c134 533e 162a 10be afb7 993a b80f 30be
000002a0: 3925 26be 488a 05be 16ea c0bd 40cf 093e
000002b0: e518 8ebe 5cec 47be 7f58 a7bd 423b b2bd
000002c0: a6da 9fbe b808 2a3d 010e ff3d 365e cd3d
000002d0: da2f 663c 826f 013d 64f0 abbd 5ed4 0a3e
000002e0: 4c74 bdbd 982a a23e 97b4 31be 9a7a 5bbe
000002f0: ab1f 1e3c 1e83 04be df7c bd3e f352 07be
00000300: 60bb 0b3e f0db 2b3c 6329 6a3e 3be0 8b3e
00000310: 4902 a03e b12c 2d3e 5e22 9e3e 2bf9 33bd
00000320: 4f26 40be 1b0a 11bc 331f d1bd 49d9 4bbe
00000330: cc95 bbbe 85af 113c 885e e73e cc71 45be
00000340: f8be bcbd 060b f5bd 3484 73bd e2cb 033d
00000350: 7a54 adbe 8923 f3bd 35a7 b9be 246f 3ebd
00000360: d617 4bbd 8165 ef3d 531a 433e 7e3e 223e
00000370: b2b7 39be 6041 b83e f9c9 1e3f 0498 90bc
00000380: 4de9 9b3e d0b1 d43d 5606 9fbd 709b f13e
00000390: 664f d13e b59a 203e 6b9b 2b3f 146b cebd
000003a0: 3672 05be 0695 93bd 7211 573e 817e 873d
000003b0: d569 5d3e 087b 1d3e 928a 07be 8c76 c83d
000003c0: c205 5dbd 152b 6abe b0dd 58bd 4d43 3f3e
000003d0: 8dd5 21be df50 c23b 5522 3a3d 4eeb 013f
000003e0: abd7 9dbd f542 283e e4e5 c9bd 73a3 62be
000003f0: 5a42 8f3f b70a 5cbe 2066 923e da7c 4dbe
0.11284954 0.12626281 -0.35494605 0.21645242 0.23673074 0.09224923 0.088777736 0.021450147
0.30003312 -0.25610462 0.03499912 0.32614356 0.014097801 -0.21110499 0.36597365 0.048044816
-0.46174234 0.09901498 -0.14309421 0.40091884 -0.13852693 -0.15753588 0.118368395 0.10502028
-0.100024715 -0.041772284 -0.00416902 0.04338734 0.11072107 0.3842368 0.644633 -0.16942158
0.26153138 0.19756761 0.058711793 0.44760287 0.40986463 -0.096569166 0.89996886 0.055269852
-0.03644926 0.24354629 0.1703497 -0.03969486 -0.2693313 0.20695359 -0.13900998 -0.20764156
0.18254331 -0.011958437 0.43721765 -0.13010378 -0.25859633 -0.011538589 -0.15121469 0.47626516
0.03164922 0.18248355 0.04913486 -0.21978532 0.8575209 -0.035310343 -0.2316227 0.24470395
-0.17781341 0.44503316 0.30774558 -0.14448063 -0.18718576 -0.003620958 -0.17890793 0.6584414
0.12854187 0.4588833 0.4376707 0.49319547 -0.022209555 0.1559272 0.062628165 0.1514921
-0.2455647 0.31092164 -0.07668097 0.34443328 0.3124715 0.39891306 0.29920456 0.312011
0.5566399 0.33169076 -0.07434363 -0.47336218 0.33672202 -0.3822078 -0.08271485 0.39127544
0.66454643 0.17371131 -0.33891937 -0.4119862 -0.08628547 0.27758673 -0.21956035 0.4587638
0.36243436 0.1260737 0.0480988 -0.045202415 0.16309632 0.40753147 0.38823587 0.25732204
0.49254796 0.2052616 0.28885418 0.047838986 -0.040908042 0.44905174 -0.042916626 -0.25154403
0.09065319 -0.05117424 0.37474263 -0.24189146 -0.48895252 0.04844856 0.17875382 0.15436299
-0.25870278 0.37397787 0.14824675 -0.05619297 -0.008092679 -0.4074414 -0.72653115 0.1936219
-0.21331497 -0.021936921 -0.07572364 -0.37281284 0.35711107 0.27200046 0.10234544 -0.206799
0.09534307 0.11873402 0.06856207 0.49515387 0.14736672 0.12828876 0.30683005 -0.0714433
0.27196467 -0.14957294 0.49692988 0.31880456 0.30272785 0.2219984 -0.13319279 -0.22609787
-0.2514434 0.12732261 0.1730754 -0.25798547 0.20625593 -0.14078555 0.0011727716 -0.17193496
-0.16225137 -0.13041031 -0.09419648 0.13457966 -0.27753368 -0.19523758 -0.08171176 -0.08702709
-0.31221503 0.04151222 0.12453843 0.10027735 0.014049495 0.031600483 -0.0839546 0.13557574
-0.092506975 0.3167312 -0.17354046 -0.21433488 0.009651105 -0.12940642 0.37009332 -0.13215236
0.13645697 0.010489449 0.2286735 0.27319512 0.31251743 0.1691158 0.30885595 -0.043938797
-0.18764614 -0.008852507 -0.10211029 -0.19907106 -0.36637723 0.008891945 0.4518931 -0.19281691
-0.09216112 -0.11964993 -0.05945225 0.03217686 -0.33853513 -0.11872012 -0.3626038 -0.04649271
-0.04958328 0.11689282 0.1905301 0.15844151 -0.1813648 0.35987377 0.62026936 -0.017650612
0.30451432 0.103854775 -0.0776488 0.47188902 0.4088089 0.15684016 0.67034024 -0.10079017
-0.1303185 -0.07206158 0.21002749 0.066159256 0.21622403 0.15378964 -0.13236454 0.09788236
-0.05396057 -0.22867997 -0.052945793 0.18678017 -0.1580412 0.0059300507 0.045442898 0.5074967
-0.07707151 0.16431792 -0.09858301 -0.22132663 1.1192124 -0.21488462 0.2859354 -0.20067158

lstm.bias_hh_l0 f4 [256]
00000000: bbcd 1c3e 7c47 0a3e 63b4 dbbe 7b82 253d
00000010: 0d3f 223e 7111 543e 6166 4b3e 6e64 693d
00000020: 7fb5 123e f879 2abe a126 333d ca96 9c3e
00000030: dfbd 933d f06e 4fbc d83a a63e 44aa 60bc
00000040: 50d4 c0be 0a82 123d 921c 7bbc 3ad8 de3e
00000050: e9d9 08be 18f1 1cbe eecb 823d 5a63 b1bc
00000060: 21ae 65be 55c9 e0bd 89ba 72bb c6da 813e
00000070: 5e6a d43d 3e27 003f 570c 2e3f e7e8 98be
00000080: fa06 d13e ae91 353c e156 363d 1209 a33e
00000090: d575 d73e 9e22 98bd a469 473f 07b4 333d
000000a0: 83a2 09be 380f 8d3e 711a 5d3e 2ab2 193d
000000b0: eb42 a0be 81d2 953e 2adf cbbd 84a6 c7be
000000c0: 407e 133e 2666 913d ea43 f73e 9811 43ba
000000d0: 26f2 29be b318 00be b607 07be fb02 e53e
000000e0: 04af c33c d2d4 6a3e 2fce 88bd 8b8e b7be
000000f0: 0df4 6a3f 38f2 1cbe 3ebb 49be 3a76 923e
00000100: dce7 08be 66e1 f93e c629 a33e 07fe c7bd
00000110: ed2f a0be ca0b 103c 5bff f8bd c044 023f
00000120: 3f1e 493e 4f5a 003f 52f6 e83e c0a9 e73e
00000130: 3191 2dbe fce5 0e3c 7eb1 33bd fd8d b23c
00000140: 0e5b 1dbe 6ce1 1e3e bc88 1bbe 2922 c33e
00000150: 7e5f b13e 82c8 7f3e 261f c33d 5c1a cf3e
00000160: 73bf 043f 349d 523e 1b96 c93d 2af4 e2be
00000170: 7a78 b93e 48ee fabe 0e50 98bc 174b bf3e
00000180: 83b4 043f c869 583e e5f1 e3be 1278 7fbe
00000190: 2f05 3b3d 1dfb 193e d5d7 05be 1f75 c53e
000001a0: 175b 863e c4cd d43d 199e 333d 129b ac3d
000001b0: 883d 843e 707e 763e 988a c03e e168 963e
000001c0: 5ad2 063f 8f70 263e df12 3d3e 003c 3e3e
000001d0: 275d 0b3d 3e5d d83e 7b40 bd3d 38a9 bebe
000001e0: 2d3a 483e f311 623d ddbc b53e 4d31 d7bd
000001f0: 24b2 92be 756c 31bb 8441 083e b7ba 573e
00000200: cdb1 40be 6ef1 2a3e 8878 aa3d 9c9e bdbc
00000210: 6a4b bebd 4ffc e4be b8d6 33bf 8157 7e3e
00000220: a701 7ebe dbdb 2bbe 2b20 b63d 210c b2be
00000230: 1d9c 4d3e 4b78 bc3e 10f6 413e 7c72 cbbd
00000240: a926 2e3d e6da f53d 0367 ea3d e908 e63e
00000250: 7fc0 413d ec53 843e 3c4a 0a3e 8e78 9e3b
00000260: dcdd 853e 473f 193d 3261 d63e 9d05 9e3e
00000270: afed 6b3e 59b1 903e a2e7 3ebe a6bd 80bc
00000280: 7cf1 25bd 81b8 0a3e 6349 693e 8303 00be
00000290: 8333 a63c 6b25 cd3c 1578 263d 0d3c c9bc
000002a0: 09d8 41be f0dc 68bd 7fc4 58be 35b7 99bc
000002b0: e7d3 84be 5cf4 35be 9a8b 6fbe a133 3abe
000002c0: de0b aabe 9009 c03d d43c 0f3d 4eea cd3d
000002d0: 54e8 3cbc cad3 e0bc 88e4 9cbc bdac cf3d
000002e0: 3b2d ffbc 8c8b c73e af59 43be 01af c4bd
000002f0: 6fbe 703d a9f0 06be 4d8a 143e 07f5 8dbd
00000300: 901a 6a3e 58a4 23bc bf93 553e 995a 353e
00000310: e858 523e 4925 553e 74da 953e 7724 92bd
00000320: 49b6 59be eac1 fe3d ab48 b83d 125e c5bd
00000330: 8414 9ebe b9e8 15be 0811 d63e b163 1c3b
00000340: 4eac d6bd 95ec a4bd d916 edbd 6803 bd3c
00000350: 4cfe 40be 0bf3 51be 0f4c ccbe 4e77 223d
00000360: b684 703d dcf9 4dbc 18b6 943c ec20 643e
00000370: fda0 3fbc 4866 033f 2137 483f 704c bfbc
00000380: e1e9 803e aa88 de3d 9b76 2fbe ba29 e23e
00000390: 0ac6 c93e df36 b83d db1d 2e3f e34c 64bd
000003a0: b3fe 81bd 913c ffbc 5026 d13d 7ee7 0ebd
000003b0: 5530 3c3d 3d3e 8c3e b06e 14be f906 a53d
000003c0: 8468 5cbb 29b9 e9bd 864b af3c 3fac 303e
000003d0: ad5b 9abd 4884 543c 5e3e 5c3c 7ddc c33e
000003e0: de35 a1bd 35ee 053e acf9 afbc 3af8 96be
000003f0: 6f98 883f 34d4 67be 38af 703e f92d 34bd
0.15312855 0.13503832 -0.42911062 0.04040764 0.15844364 0.20709778 0.19863273 0.056980543
0.14327048 -0.1664809 0.04373801 0.30583793 0.072139494 -0.012660727 0.3246677 -0.0137124695
-0.37661982 0.035768546 -0.015326636 0.43524343 -0.13364376 -0.15326345 0.06386553 -0.02165382
-0.22429706 -0.10975901 -0.0037037453 0.25362223 0.103718504 0.5005988 0.6798758 -0.2986519
0.40825635 0.011082096 0.044516448 0.31842858 0.42082086 -0.07428478 0.7789557 0.04387286
-0.134409 0.27550673 0.21592118 0.037523426 -0.31301054 0.29262164 -0.099546745 -0.3899423
0.1440363 0.070995614 0.48294002 -0.00074412813 -0.16596279 -0.12509422 -0.13186535 0.44728836
0.023887165 0.22932747 -0.066799514 -0.3585094 0.9177864 -0.15326774 -0.19700333 0.28605825
-0.13369697 0.48804778 0.31867808 -0.09765249 -0.31286564 0.008791873 -0.1215808 0.50886154
0.19640444 0.501378 0.45500427 0.45246696 -0.16949917 0.008721825 -0.04387044 0.02179622
-0.15366766 0.15515679 -0.15188879 0.38112 0.34643167 0.24978831 0.095274255 0.40449798
0.5185463 0.2056778 0.098430835 -0.44326907 0.3622473 -0.4900992 -0.01859286 0.37361977
0.5183794 0.21134102 -0.44520488 -0.24948147 0.04565924 0.15037198 -0.13070615 0.3856592
0.2624137 0.10390809 0.043851946 0.08428015 0.25828195 0.2407167 0.3760574 0.2937689
0.5266472 0.16253875 0.1846423 0.18577576 0.034024384 0.42258638 0.09240814 -0.3723848
0.19553442 0.0551929 0.35495654 -0.1050745 -0.28651536 -0.0027072702 0.13306242 0.2106732
-0.18817826 0.1669366 0.08323771 -0.02314692 -0.09291728 -0.44723746 -0.7024951 0.24838068
-0.24805318 -0.16783087 0.08892854 -0.3477488 0.20079084 0.36810526 0.18941522 -0.099339455
0.042517338 0.12004642 0.11445429 0.44928673 0.04730272 0.25845277 0.1350488 0.0048361486
0.26145828 0.03741386 0.4187103 0.30863658 0.23039888 0.28260306 -0.18643048 -0.015715431
-0.0405135 0.13546945 0.22781901 -0.1250134 0.020288235 0.025042256 0.040641863 -0.024564767
-0.18930067 -0.056851327 -0.21168707 -0.018764118 -0.2594292 -0.17768997 -0.23393098 -0.18183757
-0.3321218 0.09376824 0.03497012 0.10054456 -0.011530001 -0.027444739 -0.019151941 0.10140369
-0.031149497 0.38973653 -0.1907718 -0.09603692 0.05877536 -0.13177742 0.14505883 -0.06931501
0.22861695 -0.009987913 0.20857142 0.17710342 0.20541728 0.20815004 0.2926823 -0.07135861
-0.21260943 0.1243933 0.08998235 -0.09637083 -0.30875027 -0.14639558 0.4180987 0.0023863132
-0.10482083 -0.08052937 -0.115766235 0.023072913 -0.18847007 -0.2050287 -0.39901778 0.03966456
0.058720313 -0.012571778 0.018153235 0.22278184 -0.011696097 0.51327944 0.7820912 -0.023351878
0.25178435 0.1086591 -0.17135088 0.4417246 0.39408904 0.08994841 0.68014306 -0.055737387
-0.06347408 -0.03115681 0.10212386 -0.034888737 0.04594453 0.27391234 -0.14495349 0.080579706
-0.0033631632 -0.114122696 0.021398317 0.17253207 -0.07537017 0.012970991 0.013442604 0.38254157
-0.078716025 0.1307915 -0.021481358 -0.29486257 1.0671519 -0.22639543 0.2350434 -0.043989155

lstm.weight_ih_l1 f4 [256, 64]
00000000: e95c 4ebe 1165 71be 379c 11bd 5dc2 89bf
00000010: fa38 52be b099 7fbf 5d89 c23e 972f ef3e
00000020: ec94 6fbf 834a c73d 58a4 e8be 26ac 303f
00000030: 64fd 4e3e 11ff 5cbf 2385 89be 07a3 2b3f
00000040: b628 f6bd 76fe 99be 0730 dcbe 41e7 3ebc
00000050: 76f5 1b3f 5821 303e 3ea3 e7be 50c0 753d
00000060: e190 093e 3cd8 403e 97c0 b3bf 130d a23c
00000070: be56 20be 4b8a 2abf 4770 7e3e eaac 683e
00000080: ad78 48bf 8593 0ebe 66f9 fd3e 5f1c e63e
00000090: 1f10 653e a9a2 09be f37a 76be ecb1 b4bd
000000a0: a167 94bd 163d 993e ad5b e93e 59ea acbe
000000b0: d3e1 0b3d e8b4 e4bc 92d2 063f a935 b7bd
000000c0: e716 a23d c4d2 6bbe aa01 e23e 77b9 553d
000000d0: 97e7 3bbf 7e8a f23e f41c c5be 09ed 503f
000000e0: d78f a5bf 7950 71bf f6eb 0a3b 6df3 8fbd
000000f0: de40 95bf 9426 3dbf a44e 823f c013 8bbe
00000100: 1024 923f 6e40 e8be 06f7 a6bd 1cde 19be
00000110: 9a94 973f 31f3 f53d 8add 33be 4db3 22bf
00000120: 6368 fd3d b735 a23d 92b4 07bf f86e c83e
00000130: 635c 98be 7d33 223d 740c ff3b f06c ee3e
00000140: c63f d7bd a81c 5fbe 78e3 2d3e 0cbe e1be
00000150: 7b7f a23e da78 c4be 1e56 e4be ddfc 283e
00000160: db3b 9e3e f537 2a3e cbfe c1bd afd6 18bf
00000170: a6a7 1d3c d9ef a53d db51 61be dc33 80be
00000180: f70e 3bbf c8d3 c33e 0005 81bf fbbc b5be
00000190: 90ed 5cbf b20c 4a3f da1c 693e deed 0dbe
000001a0: c5dd 203e 0842 54bf d2b4 61bd b671 a53d
000001b0: 5033 b1bd 0fae c43e 3082 e6be 3ee6 f73d
000001c0: 02c9 d3bb f7da 013e 75b8 46bf c63a 823d
000001d0: 33be 9f3f a658 cd3d f53e 7a3f 22bd 92bf
000001e0: c887 8dbe 2cb1 27bf 40b1 b738 f7da 293f
000001f0: eda6 79be a017 75be 32d6 24be d5ea 31bf
00000200: 26c3 a03e 154d 8d3d f3c3 1bbe 6c1b c73f
00000210: fea7 323d 517e f8bd c213 adbe 2da9 97bd
00000220: 4e45 53be 25ab a93d 39db 4bbe 1c64 bfbe
00000230: b9c5 ad3e 1796 f63d 1e0b 373f fd86 79be
00000240: bac4 aabe 3280 0fbd ad54 ee3e 497b cf3e
00000250: c044 cfbe 5ca6 063e 2e8d c6be 1adf bbbd
00000260: 0e33 653d 73ab e6bd 3e71 bd3e 5b0c 29be
00000270: 9d22 1a3e ed2f ab3f 21dc 06bf 101d adbe
00000280: 083c 7abe 6df8 663e d4e9 093e 70af 5cbe
00000290: 65f7 bfbc 056c ac3e a1a8 3e3f 9415 903e
000002a0: cf26 0f3e f033 34bf 3739 8e3e 2ad0 593d
000002b0: 4a54 34be fd6c 58bf c947 fd3d d07c 2d3e
000002c0: 4352 ae3d 4508 df3d df11 8bbe 31e1 063f
000002d0: 4ac9 283f ab0f e53d e932 173f 855a 083f
000002e0: 2088 dd3c 4fc3 5bbe 842b 2d3d 982d 853f
000002f0: 990d 5dbe e4e2 983d 5a9c c93e 23a1 27bf
00000300: b5fe 5b3f 1985 dd3e ecfc 30be 08f7 533e
00000310: e69b 83bf b6d9 2f3f ae82 aabd 1240 f2be
00000320: fe8f 753e e726 0e3d 7033 83be b237 84be
00000330: eee9 d53e 15c5 e73e 821d 823d 72df 003e
00000340: eb83 11bf 86e7 d13e dd09 b83e 232d db3d
00000350: 08aa eb3d 793a e0be 9b4b b93e dfe5 03be
00000360: b058 f1bd 2e2a c3be 6863 793e 5988 ffbe
00000370: 9c21 3ebc dd9c 803f dc1f be3e bf0f 19bf
00000380: 4893 36be ce54 eebe 156d 6f3f 79b1 363f
00000390: a363 713c 9cc1 cb3d d520 c73f df55 f33d
000003a0: 7e8c 5dbe 3266 9abb 2f00 41bf eae8 b8be
000003b0: f8e6 26bf 1099 81bf 9ba2 25bc 74e1 10be
000003c0: ceb3 7f3e 0251 113f a0c0 ee3c b498 3e3e
000003d0: cdd7 61bf 678d 64be 7666 223e b040 a23f
000003e0: 2b7a 5d3e f7ee 8a3e aeff 1b3d 458a b1bf
000003f0: 9e96 9c3c fe5f 253e 30c7 833e 50fc 20be
-0.2015263 -0.2357371 -0.03554937 -1.076244 -0.20529547 -0.99843884 0.37995425 0.46715996
-0.9358661 0.09731009 -0.45437884 0.6901268 0.20213848 -0.863267 -0.26859388 0.67045635
-0.12019484 -0.3007695 -0.43005392 -0.011651815 0.6092142 0.1720022 -0.4524173 0.059997857
0.13434173 0.18832487 -1.4043149 0.019781625 -0.1565809 -0.6661727 0.24847518 0.22722211
-0.78309137 -0.13923462 0.49604338 0.4494352 0.22369431 -0.13440956 -0.24070339 -0.088229984
-0.07246328 0.29929417 0.45577756 -0.33772543 0.03415091 -0.027918294 0.52665055 -0.08945782
0.079145245 -0.2302962 0.44141895 0.052178826 -0.73400253 0.47371286 -0.38498652 0.81611687
-1.2934521 -0.94263417 0.0021197773 -0.07028852 -1.1660421 -0.7388699 1.0180249 -0.27163506
1.1417255 -0.45361656 -0.08152585 -0.15026134 1.1842225 0.12009276 -0.17564979 -0.6355484
0.12373426 0.079204015 -0.53009903 0.39147162 -0.29757985 0.039599884 0.007783467 0.46567488
-0.10510211 -0.21788275 0.16981304 -0.44090307 0.31737885 -0.38373452 -0.44596952 0.1650271
0.3090504 0.16622908 -0.09472426 -0.5970258 0.00962249 0.08102388 -0.22003882 -0.25039566
-0.7306971 0.38247514 -1.0079651 -0.35495743 -0.8629999 0.7892562 0.22764912 -0.1386027
0.15709598 -0.82913256 -0.055104084 0.08078329 -0.08652365 0.38414046 -0.450212 0.12104462
-0.006463171 0.12681185 -0.7762521 0.063588664 1.2479919 0.10026674 0.97752315 -1.1463969
-0.27642655 -0.6550472 8.7591354e-05 0.6634974 -0.24380083 -0.23934793 -0.16097334 -0.6949895
0.31398886 0.06899468 -0.15211467 1.5555243 0.04361724 -0.12133468 -0.33804137 -0.074053146
-0.20631906 0.08284596 -0.19907846 -0.37381065 0.33939913 0.12040346 0.7150134 -0.243679
-0.33353215 -0.035034366 0.46548977 0.40523747 -0.4048214 0.13149399 -0.38779587 -0.091734126
0.055956893 -0.1126317 0.3700046 -0.1650862 0.15052266 1.3374001 -0.5267964 -0.33811235
-0.24436963 0.22555704 0.13468105 -0.21551299 -0.023433397 0.33676162 0.7447606 0.28141463
0.13979648 -0.7039175 0.27778026 0.053177036 -0.17610279 -0.845413 0.123672076 0.16942143
0.08511784 0.10890249 -0.27162072 0.52687365 0.6593214 0.11184629 0.5906206 0.5326312
0.027042449 -0.21461223 0.042277828 1.0404539 -0.21587218 0.07465151 0.393771 -0.6548025
0.8593553 0.43265608 -0.17283982 0.20699704 -1.0281951 0.68691576 -0.083257064 -0.47314507
0.2398071 0.03470507 -0.2562518 -0.25823742 0.41780037 0.4526755 0.063532844 0.12585238
-0.56841916 0.4099695 0.35945025 0.107019685 0.1150704 -0.4379461 0.36190495 -0.12880658
-0.11784494 -0.38118118 0.24354327 -0.49908713 -0.011604693 1.0047871 0.37133682 -0.5978965
-0.17829621 -0.46549076 0.9352582 0.7136455 0.014733228 0.099490374 1.5556895 0.11881613
-0.21635625 -0.0047118897 -0.75390905 -0.361152 -0.6519618 -1.0124836 -0.010109569 -0.14148504
0.24970934 0.56764233 0.029144585 0.18612939 -0.8821991 -0.22319566 0.15859398 1.2675991
0.21628635 0.2713544 0.038085632 -1.3870322 0.019114789 0.161499 0.25737906 -0.1572125

lstm.weight_hh_l1 f4 [256, 64]
00000000: da3e 11be 6783 00be c5da 56bd db2b acbf
00000010: fe5e 2f3f c3dc f33e 5127 643e 573b 273d
00000020: 089c b0bf b10f 17bf 9657 00be 3658 143d
00000030: 9dec d83e 00fb 2e3e 325b f2bf 34b2 813e
00000040: eedc 3fbe 87b7 b43e 821d 42be 9c11 073f
00000050: e974 ad3d 6a5b 3b3e eb7c c83f c567 a23f
00000060: fba6 99be 00f3 ee3e cd4a 30bf bbd1 a4be
00000070: 1bd6 fabe 9e8e adbf e19e 203f 2f5b ccbe
00000080: c949 323e 5f61 4d3e d8fe 9d3f a47e 7bbd
00000090: 890b 65be a21f c33d a96d dcbd 5c18 143d
000000a0: ffa2 883e 3aa6 173f aaa2 a93f 61a3 26bf
000000b0: 46fe 31bf f8fd be3e 6176 003e 17d1 113f
000000c0: 8136 46bd c433 b13d 64cf b3be c8e9 f7bc
000000d0: 77fc 50be 9b47 90bf 72d7 373e 1a61 a5bd
000000e0: e380 97bd b0f9 653f 33ad ae3e a2c6 4a3e
000000f0: 39eb 883f a6fe 173e 5dd0 b33f 5a9b a93e
00000100: d17b 2a3e e1ee 85bd 8823 75bc 21a2 66be
00000110: ea20 9cbd edc0 0e3f 7776 24be c4ca 823e
00000120: 8109 853e 9d7e 863f 2bb5 253d b92d 13bf
00000130: 31ff dc3e 63a9 133f be6d a9bf 3e10 37bf
00000140: cddd 52be c9da c2bd 5f65 6a3e b0dd 4c3d
00000150: dcb3 753e 014e c03c 3f73 163f 0b62 c93e
00000160: 455c 52bd ada6 c43e 1217 7d3e bd3f 31bf
00000170: afee f7be bae6 78be 5b6d 16be e5ab 963f
00000180: a0a4 b4be 3d84 1cbf e7bd 853e 2533 1bbe
00000190: 97db 353c 7b3d bdbc 73be 563f 4f83 0c3e
000001a0: 2148 9ebc 4c25 2c3d b9d7 973d d40c c43e
000001b0: a4f7 113e 64b8 3cbd 8e03 b1be ee82 f3bc
000001c0: 7113 d2bd 5ae9 26bf 91ca 853e 6250 c2bd
000001d0: 6337 88be 8e95 2d3e 41c7 8b3e 1eb2 1b3d
000001e0: eab6 073f e9d1 8fbd af31 f9be c5f8 ca3e
000001f0: ec69 9b3e 22eb 7abe dec0 87be a594 a23e
00000200: ddd7 3ebd 0273 93be 1dab 09bd dd16 883e
00000210: f354 d23d 8a8d cdbd db07 473e 2ec6 d13d
00000220: fff2 673f bdaa 9a3f f88b 8dbd 2494 a03e
00000230: 2e56 b5be c1c1 893d c2be 70bf 8384 813d
00000240: e276 54be 3aac d63e 3813 eebe 2c90 bd3e
00000250: 565f 153e 91a1 113e 4da4 803f ef7f 013e
00000260: b1bf d8be 7979 adbe 67eb 6dbf 12bf 653d
00000270: d92f 4e3f 21cb c83d 2177 323e 52e9 313e
00000280: 07e8 413d e87c f43d edaa 4cbf b5ab 9ebe
00000290: c99a 073e a5e7 0cbd 01af ec3e 39e4 6dbf
000002a0: 71ee 2f3f 7b11 413f 3616 2c3f ec56 9cbf
000002b0: b2c1 50bf 9ec9 5a3e 6ce2 a93d 9eeb 2d3f
000002c0: a223 dfbd f849 9abf 3928 91be b6cb ae3d
000002d0: 76cb 92be a1b7 e9bd 5ae3 873e b081 8d3d
000002e0: 5ec8 83be eca1 0b3e acb8 eab9 f8ee cd3e
000002f0: 4fc9 d3be 4c9b 733e c390 1b40 95e2 223e
00000300: dc2d 5b3e cced 2cbf 1d28 44be ce14 0d3e
00000310: 5126 113f 874c 2a3f b222 053e 8d90 073f
00000320: 4cb9 1e3e c857 78bf 9356 c63e 3162 253e
00000330: cd16 53be 7460 66be ffef 3c3f 7532 6d3e
00000340: 814e 10bf bd07 47bd 65ac cd3e 7aa5 2c3e
00000350: 0796 64be 8c33 f33e 05da d7be 80f6 d83e
00000360: e0bd 1e3e 406b 88bf 2e97 c8be 75b5 773f
00000370: 6429 d8be 256b c43e 32cf 1b3f a6bf 94bf
00000380: ed36 853d 54f5 943e e1cb 693e 40db d43e
00000390: b988 a93e 1041 c3bd c579 0cbf 14ba e9bd
000003a0: 3aae a23e 1713 603e 1b7e c63e f394 17bf
000003b0: a42a 81be 44f6 16bf b2d7 97be 4372 a3bd
000003c0: cc1c 29be 44c2 e93e e627 e4bd 4ab1 04bf
000003d0: b2cc f53d 8e07 22bf 272a 003f 5408 58be
000003e0: 8443 78be c863 183d 7819 e93d a91d 3a3b
000003f0: e936 743e a95f 203f 298f 9a3f a6d2 8c3e
-0.14184132 -0.12550126 -0.05245473 -1.3450884 0.6850432 0.47629365 0.22280623 0.040828075
-1.3797617 -0.5900832 -0.12533411 0.036216937 0.42368022 0.17087936 -1.8934081 0.2533127
-0.18736622 0.3529627 -0.18956569 0.52761245 0.084695645 0.1829659 1.5663122 1.2687918
-0.30010208 0.4666977 -0.68864137 -0.32191262 -0.48991475 -1.3559148 0.6274243 -0.39913318
0.1741096 0.20056675 1.2343397 -0.06140007 -0.22367682 0.09527518 -0.107631035 0.036156043
0.26686856 0.59238017 1.3252766 -0.65093046 -0.69528615 0.37303138 0.12545158 0.5695967
-0.048391823 0.08652452 -0.35119164 -0.030262843 -0.20408808 -1.1271852 0.1795328 -0.08075161
-0.0739763 0.8983412 0.34116516 0.19802335 1.0696784 0.14843234 1.4047962 0.33126336
0.16648795 -0.06539703 -0.014962085 -0.22522785 -0.07623465 0.5576313 -0.16060816 0.25545323
0.25983813 1.0507389 0.04045598 -0.5749164 0.43163446 0.5768034 -1.3236616 -0.7150916
-0.20592423 -0.09514386 0.22890233 0.050016105 0.23994392 0.023474695 0.587696 0.39332613
-0.051357526 0.38408414 0.24715832 -0.6923788 -0.4842429 -0.24306765 -0.14690153 1.1771208
-0.3528185 -0.6113928 0.26121446 -0.15156229 0.011099718 -0.023100605 0.8388435 0.13721965
-0.019321503 0.042027757 0.07414193 0.38291037 0.14254624 -0.046074286 -0.34573025 -0.029725518
-0.102576144 -0.65199816 0.26131108 -0.09487988 -0.26604757 0.16951582 0.27300456 0.038011663
0.5301348 -0.07022459 -0.48670718 0.3964292 0.3035425 -0.24503759 -0.26514333 0.31754032
-0.046592582 -0.28798681 -0.033610452 0.26579943 0.10270109 -0.10036762 0.1943659 0.10242878
0.9060516 1.2083355 -0.069114625 0.31363022 -0.35417312 0.06726409 -0.94041073 0.06324103
-0.20748475 0.41928273 -0.46499038 0.37024057 0.14587149 0.14221789 1.0050141 0.12646459
-0.4233375 -0.3388174 -0.9293732 0.056090422 0.8054176 0.09804369 0.17428257 0.17374161
0.04734042 0.119378865 -0.7994831 -0.30990377 0.1324264 -0.0344006 0.46227267 -0.92926365
0.6872321 0.754173 0.6722139 -1.2214026 -0.81545556 0.21365973 0.0829514 0.6793765
-0.10895468 -1.2053823 -0.28351 0.085349485 -0.28670853 -0.114119776 0.26540643 0.069095016
-0.25738806 0.13635987 -0.0004476955 0.4022138 -0.41364524 0.2378971 2.4307106 0.15906747
0.21404213 -0.6755035 -0.19155927 0.13777468 0.5669909 0.6652302 0.13001516 0.5295494
0.15500373 -0.97008944 0.38737926 0.16150738 -0.20614167 -0.22497731 0.73803705 0.23163779
-0.5636979 -0.048591364 0.4017059 0.1686 -0.22322856 0.47500265 -0.42158523 0.42375565
0.15502119 -1.065773 -0.3917784 0.96761256 -0.4221908 0.38362995 0.6086303 -1.1620986
0.06504617 0.2909342 0.2283168 0.41573524 0.33112124 -0.09533894 -0.54873306 -0.11412445
0.3177355 0.21882282 0.38768086 -0.59211653 -0.25227845 -0.5896952 -0.2965675 -0.07980778
-0.16514891 0.45656025 -0.111404225 -0.5183302 0.12001933 -0.6329278 0.5006432 -0.21096927
-0.24244505 0.037204534 0.11381811 0.0028399026 0.23849072 0.62645966 1.2074939 0.27504462

lstm.bias_ih_l1 f4 [256]
00000000: 14bf 533d 9773 68bd 1cf9 d33e 2048 abbd
00000010: af96 263d 5065 a83e 1f4b 8d3e 34b1 00be
00000020: 94f2 d1bb e165 5f3e a5fe 34be c7fd de3d
00000030: 957b 923d a034 9f3e c100 913e 00e4 06be
00000040: c73a 87bd 1d76 fa3b ad54 df3d 0c83 f73e
00000050: 9012 a1be 755c 853e 14c9 833d 69c5 ba3c
00000060: 878a 2f3e 49b8 ea3d 4354 af3d 392c 5d3c
00000070: 55ed 423d 7729 77bc 6331 493e 7b5c c93e
00000080: 9d1d cd3e a127 833d 9843 f83d bd45 0ebc
00000090: 6b31 5abd 6f93 043d 0ee0 b23c 76ca 223e
000000a0: 4b06 553d 2c76 20be 4160 33be 7db3 5bbe
000000b0: 8f2a 9f3d 56ba 8f3e 8517 1b3e 9243 833e
000000c0: 8a5b 103e 524c 833e 954d 5f3b 8fff babd
000000d0: ed31 273e 00ab 763e d6d6 473e 0daf 993d
000000e0: 40ce f13e 48da 9d3d 7fef 343e 6ca8 593e
000000f0: d430 063f 6a98 743e 7300 92bd 3a4f b03d
00000100: efcd 613d c6b9 66bb 7217 66bd f51b 28be
00000110: 7166 683e d17e 8a3e 8061 643e 102d 86be
00000120: 59aa 0bbe cf97 17be 142f 7d3e 4a35 26be
00000130: ef80 eebd 4105 1f3e 6e47 99be d06c 3b3e
00000140: 6155 003e 709e 19be 1d46 593d 6314 ce3e
00000150: 8200 abbd 6a90 f83d 5cf2 1fbd 3e4a b1bd
00000160: 078a 753d f4bd ecbd 3616 7dbd b63c 98bd
00000170: ed5b 1abd 8029 75be 43ca 793d 9b2a 1abf
00000180: 178a b73d 6f5a fd3d c6d7 c1be da6d 4dbc
00000190: 2074 01bf 847a 773e 3858 19bd 170d e73d
000001a0: b41a 81be 4b34 313e 731a 69bd 78b7 49be
000001b0: c394 6cbd 7ed0 523c 5a57 c93d 27b8 fb3d
000001c0: 03ea 8f3d e5a2 5dbd b4cc ed3d 2db8 c13d
000001d0: 34ef 053c 1544 833d 7991 5f3e 2da3 7a3d
000001e0: 798b 63be 0cef aebd a60f 573e 4fae 8abe
000001f0: 556f 4c3c 0fc8 d43d cc83 d0be abe7 5d3e
00000200: dab5 d6bd 968a 513e 0a38 eabe 604b 673d
00000210: f6ac be3d 0617 37be ef5c 8d3d 8a70 713e
00000220: 20de 583e a333 66bc bc29 82be 395c 5d3e
00000230: d143 113e 8724 99bc 2c85 6e3e d200 963d
00000240: bfba 593e f607 81bd 3050 34bd c2e7 be3e
00000250: 4c86 3bbd f3cf 68be aa0c 083e 2ecf 6abd
00000260: d675 913e 559c 6b3d ce78 833d 2614 353e
00000270: 8360 9ebe bff8 a9bd 8d42 98bc 6d2f c13d
00000280: 1329 873e c3be 483d 9d0b 803e 425b 533e
00000290: 395f 11be 65ce cfbd 76fd 353c dc66 613d
000002a0: 21e5 11be b2f3 32bc 3563 4c3d c526 ebbd
000002b0: 6da9 4e3e d90b 4b3d a7d6 0b3e b39a 8f3e
000002c0: 1af4 7abe 1704 b9be e1fd 2a3e 2d0b 993d
000002d0: 37ac 43be 2691 a5be 626c d2bd 952b 1a3e
000002e0: 703c 8e3e 6400 663e cf14 433e 2b70 c13e
000002f0: 5865 e53d 3ea3 2fbe 158d 9b3c 9cd1 c7bd
00000300: 89b4 1a3d b374 66be ee48 eb3e 74c5 bebb
00000310: 05e0 44be d500 2cbe ad08 993e d57e 18bd
00000320: 130b 8c3d 75eb aa3e a8a9 133e 197c 933e
00000330: 945e 30be 7f4c 933b ecd1 783e d12d 493e
00000340: f7ad bcbd 2f61 c7bd 5673 533e 9fa3 043e
00000350: 84ae ebbd 9b8d 83bd 69c8 153d 279f c83d
00000360: b1eb df3d c58a dd3d e4c5 2a3e 17a4 3e3d
00000370: f43f 003e 7d22 cbbd 5279 65bd 4c6e c43e
00000380: ba59 d9bc 7a32 80bd 67c3 5e3e 8a27 83bd
00000390: 7884 103e 5ebd f6bc b397 673d b2e7 ac3e
000003a0: 0c54 02be c91f 6abe 2cb3 2f3d 1a8e 5e3e
000003b0: 544c 263e 6c92 c03d 077c b6bc 4601 fc3d
000003c0: 9b97 b43d 1bfd a33e 6fd3 86bd fb1c 3a3e
000003d0: 5b93 023c 4acd 2a3e 1086 ed3b 3246 9e3d
000003e0: 40bd 953d 771c 333e 961e bbbe b678 9f3e
000003f0: d86c e2bd 0478 52be ac3f a83c 67dd 0fbe
0.0516959 -0.05675086 0.41400993 -0.08363366 0.040671047 0.32889795 0.27596375 -0.12567598
-0.0064070914 0.21816207 -0.17675264 0.10888248 0.07152478 0.31094837 0.28320888 -0.13172913
-0.06603008 0.0076434747 0.109048225 0.48342168 -0.31459475 0.26047102 0.06434837 0.02279921
0.17142688 0.11460931 0.085609935 0.013499313 0.04758962 -0.01508557 0.19647746 0.3932837
0.40061656 0.06404043 0.121222675 -0.008683619 -0.053269785 0.032367166 0.021835353 0.15897545
0.052007955 -0.15670079 -0.17517187 -0.21455188 0.07771789 0.2807185 0.1514569 0.2563749
0.1409742 0.25644165 0.0034073342 -0.09130775 0.16327639 0.24088669 0.19515547 0.075040914
0.4722767 0.077076495 0.17669486 0.21255654 0.52418256 0.23886266 -0.07128992 0.08608861
0.055128034 -0.0035205944 -0.056174703 -0.16416915 0.22695328 0.27049878 0.22302818 -0.26206255
-0.13639201 -0.14804004 0.2472499 -0.16231266 -0.11645686 0.15529348 -0.2993731 0.18303227
0.1253257 -0.15001845 0.05304538 0.4024993 -0.08349706 0.1213692 -0.03904949 -0.08656739
0.059946086 -0.11559668 -0.06178876 -0.07433455 -0.037685324 -0.23941612 0.060983907 -0.6022126
0.089618854 0.123707645 -0.37859935 -0.012538398 -0.5056782 0.2416783 -0.037437648 0.112817936
-0.25215685 0.17305104 -0.05690999 -0.19698894 -0.057759058 0.012867091 0.09831114 0.12290984
0.07027056 -0.054110426 0.1161131 0.09458957 0.008174706 0.0640947 0.21832837 0.061190773
-0.22221173 -0.08541688 0.21002063 -0.27086112 0.0124777155 0.10389721 -0.40725553 0.21670406
-0.10483904 0.20463023 -0.4574588 0.056468368 0.093103334 -0.17879876 0.06902491 0.23578086
0.21178484 -0.014050397 -0.25422466 0.21617211 0.14186026 -0.018694175 0.23292989 0.07324375
0.21262644 -0.063003466 -0.044021785 0.37286192 -0.045782372 -0.22735576 0.13286081 -0.05732649
0.28410214 0.057522137 0.06419526 0.17683467 -0.30933008 -0.08299398 -0.018586421 0.09432874
0.26398525 0.04901005 0.2500886 0.20640281 -0.14196481 -0.101467885 0.011107793 0.055029735
-0.14247562 -0.010922359 0.0498993 -0.11482004 0.20181818 0.049571846 0.13656102 0.28047714
-0.2450718 -0.36135933 0.1669841 0.07472835 -0.19108663 -0.32337302 -0.10274579 0.15055688
0.27780485 0.22461087 0.19050907 0.3778089 0.112009704 -0.17152116 0.018988172 -0.09756777
0.037769828 -0.22505455 0.45954078 -0.005821878 -0.19226082 -0.16797192 0.29889432 -0.03723033
0.0683805 0.33382764 0.14420187 0.28805616 -0.17223579 0.004495203 0.24298829 0.19646384
-0.09212869 -0.09735333 0.20649466 0.12953041 -0.115078956 -0.064234935 0.03656808 0.09795981
0.109336264 0.10817484 0.16677052 0.046543207 0.12524396 -0.099186875 -0.056023903 0.383654
-0.026532043 -0.06259628 0.21754228 -0.06404026 0.14113033 -0.030119594 0.056541156 0.3377052
-0.12727374 -0.22863688 0.04289548 0.21733895 0.16240054 0.09402928 -0.022275938 0.123049304
0.08817979 0.32029042 -0.065832965 0.18175118 0.007969703 0.16679874 0.0072486475 0.077282324
0.07311487 0.17491327 -0.36546773 0.31146783 -0.110559165 -0.20553595 0.020538174 -0.14049302

lstm.bias_hh_l1 f4 [256]
00000000: 5ac4 ba3d e704 54be d643 d53e 0f4c 5dbe
00000010: 0a34 bf3d 1071 613e a051 193e 7a00 9bbd
00000020: 17a7 15be 8011 913e 881a 96bd 5ffa e93d
00000030: ce61 af3c fb17 223e bbe6 0b3e e900 ddbd
00000040: 3b88 b73c 8ac9 203e 4d98 c23d 683e cb3e
00000050: 54f9 7dbe 55b5 443e 32f6 b63d c49f 353e
00000060: f659 b63d 4a98 a33d 35b6 0f3e 94cc 44bd
00000070: 67ab a33c aec9 3abe 7365 0e3e b78e ab3e
00000080: 34c3 5f3e 3dce b3bd f67d afbd feb6 7bbd
00000090: 92d2 d8bd 25d2 a63c 6a51 e5bd b2cb c23d
000000a0: c1f5 6d3d 0a0e 48be be84 06be 3257 d2bd
000000b0: ac43 eb3b a83f 6b3e 15b5 a43e 802c 403e
000000c0: 11a7 f43d 90bc a63d 9091 913d b3bd 87bd
000000d0: baa0 373e 5445 353e 20db 103e ff5d 983e
000000e0: a21e b73e 18cd 5c3e b591 733e 38cb 063d
000000f0: 5a05 b73e a21c 1a3e 7471 5b3d d71f 0ebd
00000100: aa54 c63d 48c1 923d 79cb 22be 06f2 c2bd
00000110: 96f0 283e 1d10 c73e 5abd 353e bf6c 09bd
00000120: 3f53 cdbd 783b 6fbd 9b7f 8c3d 8ccf 88be
00000130: 6612 29be 23ee 3c3e b63a c1be 97c7 8e3d
00000140: 95ee 703e 28ef c0bd 95f5 acbc e0ea 873e
00000150: 30eb a4bd c82a 013e 1565 01bc 2772 183c
00000160: 0d85 2d3e 40c2 833d 988e 15be 4834 1bbe
00000170: e081 d7bd cb9b c3be c212 4f3e 8e23 0bbf
00000180: eaa1 b33d bad8 a33e 82d7 97be 899b e1bd
00000190: 27b6 c6be ede0 803e 1da1 8fbc ede9 473d
000001a0: 492a 85bd 8c7a bb3d 60f1 21be 22c4 5bbe
000001b0: 52f9 af3c 71a5 f9bd 1e7a 063e 9c7f 503e
000001c0: f182 733e 7da9 63bc 1307 633d a29e 733e
000001d0: 3c3c b83d d927 a7bd ac57 c43d 07f7 563e
000001e0: 40b6 c0be 1637 27be f348 233e a63c 9bbe
000001f0: 44a6 3fbe df4f 203e 92e7 d4be aea2 f03d
00000200: 0ec1 e4bd f444 5f3e 9579 90be 0aae eabc
00000210: 30ed bcbd 8c79 57be fa41 1f3e 1e42 393e
00000220: c29a 753e 6d64 af3d d873 e0bc e76c 073e
00000230: 07ec 4c3e 9edc 25bd b30f 513e 0e63 7a3d
00000240: 24e9 583e 18d2 f3bc 6d6a 74bd 5729 9a3e
00000250: 7a7d 053d 6b4a 51be 1a20 bb3d ffa5 f63d
00000260: ec74 fb3d a7cb e7bd de8d 5e3c 34de 513e
00000270: 691b a3be 01c5 8a3d 8d61 24be a893 bc3c
00000280: 15d4 1b3e f9eb 26bd 4caf ac3e 4840 c03d
00000290: 6f3e b3be 3ec4 84be 1220 91bb 70bc 13be
000002a0: 8582 12be cfed 05be c654 193e 7aa1 1bbe
000002b0: a35c 333e 16c3 d23c 0d90 8c3e 6817 7c3e
000002c0: 696d 56be 0d3b c1be fb1c 263e eabd 06be
000002d0: 0c2e 81be 3cfd 25be 5f1d 38be 9772 6c3e
000002e0: 2f16 2b3e 0dce 183e 07c0 183e dd97 bd3e
000002f0: 71ed 913d d044 4dbe a4f5 edbd 9b82 2bbe
00000300: 3285 b3bd 4508 7dbe 3c41 a33e 20d3 413d
00000310: aa55 203d 4166 22be 997d 813e 4d50 90bc
00000320: 8e74 1b3e dbf6 dd3e c71a db3d a91c c13e
00000330: a683 85bd e2b6 f0bd fa98 853d 6f8f 1a3d
00000340: 7716 d4bd 97c3 b33b 71bd 123e 3f09 5d3e
00000350: c35d c7bc 0af0 59be 778c 113e 38d8 88bd
00000360: d328 e93d 7a2f 1c3d 36e8 083e 783f f33c
00000370: be08 963d 2a69 36bd 9648 55bd 4ef1 8d3e
00000380: 1ec8 a83c 20a5 93bd 2153 1e3e 20c5 9e3c
00000390: 3b3f 063e 5daf a2ba 187d 583d a874 803e
000003a0: a2e0 3ebe 4378 4dbe a1bf b4bd 8ff1 e53d
000003b0: 9540 493d 7722 923e 2148 00bd 2bed adbd
000003c0: 73e7 223e 0b1d b13e e799 d1bd 1064 e73d
000003d0: 6773 a6bd b017 0a3e 96c9 f8bd b970 fbbb
000003e0: f5b5 233d 7dcd 783d f573 95be 5d08 943e
000003f0: 2076 2abe 2bf3 dabd bd8c d03d d01a d9bd
0.09119482 -0.20704995 0.41653317 -0.21611045 0.093360975 0.22015786 0.14972544 -0.0756845
-0.14614521 0.28333664 -0.07329279 0.114247076 0.021408942 0.1582946 0.13662235 -0.10791189
0.022403827 0.15701881 0.09501705 0.3969605 -0.24802142 0.19209798 0.08933677 0.17736727
0.089038774 0.07988031 0.1403435 -0.048046663 0.019979192 -0.18240997 0.13905887 0.3350732
0.21851808 -0.08779571 -0.08568947 -0.06145381 -0.10587038 0.020363877 -0.11197169 0.09511508
0.058095697 -0.19536605 -0.13136575 -0.102705374 0.007179698 0.22973502 0.32169405 0.18766975
0.11945928 0.08141434 0.07107842 -0.06627979 0.17932406 0.17702228 0.1414609 0.29759213
0.35765558 0.21562612 0.23786052 0.03290865 0.3574627 0.15049985 0.053574994 -0.034698334
0.09684117 0.07165772 -0.15897931 -0.095188186 0.16498026 0.3887948 0.17748013 -0.033550974
-0.100256436 -0.058406323 0.06860276 -0.26720846 -0.16510925 0.18450217 -0.37740105 0.069716625
0.23528512 -0.094206154 -0.021113196 0.26546383 -0.08052671 0.12613976 -0.007897635 0.00930456
0.16945286 0.064335346 -0.14605176 -0.15156662 -0.105228186 -0.38204798 0.20222 -0.5435113
0.08771117 0.32001287 -0.29656607 -0.11015994 -0.38810846 0.25171605 -0.01753288 0.048807073
-0.06502206 0.09154233 -0.15814734 -0.21461537 0.02148119 -0.121897586 0.13132522 0.20361179
0.23780419 -0.01389539 0.05542667 0.23790982 0.08995864 -0.08161897 0.095870346 0.20992671
-0.37639046 -0.16329607 0.15945797 -0.3031971 -0.18715769 0.15655468 -0.41582924 0.11749779
-0.11169635 0.21803647 -0.2821776 -0.028647441 -0.092249274 -0.2104246 0.15552512 0.18091628
0.23984817 0.085640766 -0.027398989 0.13225137 0.20011912 -0.0404936 0.20416145 0.061129622
0.21182686 -0.029763266 -0.059671808 0.30109665 0.032590367 -0.20438544 0.09136982 0.1204338
0.122781605 -0.113181405 0.013583628 0.2049492 -0.3185685 0.06775857 -0.16052838 0.023019627
0.15217622 -0.040752385 0.3372749 0.09387261 -0.3500857 -0.2593097 -0.004428872 -0.14427352
-0.14307602 -0.13078998 0.14973745 -0.15198317 0.17515807 0.02572779 0.27453652 0.24618304
-0.20940174 -0.37740365 0.16221993 -0.13158384 -0.25230443 -0.16209882 -0.17979954 0.23090588
0.16707681 0.14922352 0.14917003 0.37029925 0.071253665 -0.20045781 -0.11619118 -0.16749041
-0.08765639 -0.24710186 0.31885707 0.047320485 0.039144196 -0.1585932 0.25291136 -0.017616415
0.15181181 0.43352398 0.10698467 0.37717178 -0.065192506 -0.11753632 0.065233186 0.037734445
-0.10355847 0.0054859626 0.14330079 0.21585558 -0.024336701 -0.21282974 0.1421374 -0.066818655
0.1138474 0.038131215 0.13369831 0.02969335 0.07325886 -0.044533886 -0.052071176 0.27723163
0.020603236 -0.072092295 0.15461399 0.019381106 0.13110058 -0.0012411881 0.052853674 0.25089002
-0.18640378 -0.20065407 -0.08825613 0.11227714 0.049133856 0.2854192 -0.031318787 -0.08492502
0.15908603 0.3459247 -0.10234433 0.11298382 -0.0812748 0.13485599 -0.121478245 -0.0076733497
0.03996845 0.060742844 -0.2919003 0.2891263 -0.16646624 -0.10690912 0.10183094 -0.10600817
